{
    "format": "graph-model",
    "generatedBy": "2.17.0",
    "convertedBy": "TensorFlow.js Converter v4.22.0",
    "signature": {
        "outputs": {
            "Identity:0": {
                "name": "Identity:0"
            }
        }
    },
    "modelTopology": {
        "node": [{
            "name": "ConstantFolding/model_59/tf.math.divide_2/truediv_recip",
            "op": "Const",
            "attr": {
                "value": {
                    "tensor": {
                        "dtype": "DT_FLOAT",
                        "tensorShape": {}
                    }
                },
                "dtype": {
                    "type": "DT_FLOAT"
                }
            }
        }, {
            "name": "model_59/tf.strided_slice_59/ones_like/tensor",
            "op": "Const",
            "attr": {
                "dtype": {
                    "type": "DT_INT64"
                },
                "value": {
                    "tensor": {
                        "dtype": "DT_INT64",
                        "tensorShape": {
                            "dim": [{
                                "size": "3"
                            }]
                        }
                    }
                }
            }
        }, {
            "name": "model_59/tf.strided_slice_59/StridedSlice/end",
            "op": "Const",
            "attr": {
                "dtype": {
                    "type": "DT_INT64"
                },
                "value": {
                    "tensor": {
                        "dtype": "DT_INT64",
                        "tensorShape": {
                            "dim": [{
                                "size": "3"
                            }]
                        }
                    }
                }
            }
        }, {
            "name": "model_59/tf.strided_slice_59/ones_like",
            "op": "Const",
            "attr": {
                "value": {
                    "tensor": {
                        "dtype": "DT_INT64",
                        "tensorShape": {
                            "dim": [{
                                "size": "3"
                            }]
                        }
                    }
                },
                "dtype": {
                    "type": "DT_INT64"
                }
            }
        }, {
            "name": "model_59/tf.math.add_241/Add/y",
            "op": "Const",
            "attr": {
                "dtype": {
                    "type": "DT_FLOAT"
                },
                "value": {
                    "tensor": {
                        "dtype": "DT_FLOAT",
                        "tensorShape": {
                            "dim": [{
                                "size": "1"
                            }, {
                                "size": "2"
                            }, {
                                "size": "8400"
                            }]
                        }
                    }
                }
            }
        }, {
            "name": "model_59/48956",
            "op": "Const",
            "attr": {
                "dtype": {
                    "type": "DT_FLOAT"
                },
                "value": {
                    "tensor": {
                        "dtype": "DT_FLOAT",
                        "tensorShape": {
                            "dim": [{
                                "size": "1"
                            }, {
                                "size": "2"
                            }, {
                                "size": "8400"
                            }]
                        }
                    }
                }
            }
        }, {
            "name": "model_59/tf.strided_slice_56/StridedSlice/begin",
            "op": "Const",
            "attr": {
                "value": {
                    "tensor": {
                        "dtype": "DT_INT64",
                        "tensorShape": {
                            "dim": [{
                                "size": "3"
                            }]
                        }
                    }
                },
                "dtype": {
                    "type": "DT_INT64"
                }
            }
        }, {
            "name": "model_59/tf.strided_slice_56/StridedSlice/end",
            "op": "Const",
            "attr": {
                "dtype": {
                    "type": "DT_INT64"
                },
                "value": {
                    "tensor": {
                        "dtype": "DT_INT64",
                        "tensorShape": {
                            "dim": [{
                                "size": "3"
                            }]
                        }
                    }
                }
            }
        }, {
            "name": "model_59/tf.strided_slice_56/StridedSlice/strides",
            "op": "Const",
            "attr": {
                "dtype": {
                    "type": "DT_INT64"
                },
                "value": {
                    "tensor": {
                        "dtype": "DT_INT64",
                        "tensorShape": {
                            "dim": [{
                                "size": "3"
                            }]
                        }
                    }
                }
            }
        }, {
            "name": "model_59/tf.reshape_41/Reshape/shape",
            "op": "Const",
            "attr": {
                "value": {
                    "tensor": {
                        "dtype": "DT_INT32",
                        "tensorShape": {
                            "dim": [{
                                "size": "4"
                            }]
                        }
                    }
                },
                "dtype": {
                    "type": "DT_INT32"
                }
            }
        }, {
            "name": "model_59/tf.compat.v1.transpose_282/transpose/perm",
            "op": "Const",
            "attr": {
                "value": {
                    "tensor": {
                        "dtype": "DT_INT32",
                        "tensorShape": {
                            "dim": [{
                                "size": "4"
                            }]
                        }
                    }
                },
                "dtype": {
                    "type": "DT_INT32"
                }
            }
        }, {
            "name": "model_59/tf.compat.v1.transpose_283/transpose/perm",
            "op": "Const",
            "attr": {
                "dtype": {
                    "type": "DT_INT32"
                },
                "value": {
                    "tensor": {
                        "dtype": "DT_INT32",
                        "tensorShape": {
                            "dim": [{
                                "size": "4"
                            }]
                        }
                    }
                }
            }
        }, {
            "name": "model_59/tf.nn.convolution_203/convolution/filter",
            "op": "Const",
            "attr": {
                "dtype": {
                    "type": "DT_FLOAT"
                },
                "value": {
                    "tensor": {
                        "dtype": "DT_FLOAT",
                        "tensorShape": {
                            "dim": [{
                                "size": "1"
                            }, {
                                "size": "1"
                            }, {
                                "size": "16"
                            }, {
                                "size": "1"
                            }]
                        }
                    }
                }
            }
        }, {
            "name": "model_59/tf.compat.v1.transpose_288/transpose/perm",
            "op": "Const",
            "attr": {
                "value": {
                    "tensor": {
                        "dtype": "DT_INT32",
                        "tensorShape": {
                            "dim": [{
                                "size": "4"
                            }]
                        }
                    }
                },
                "dtype": {
                    "type": "DT_INT32"
                }
            }
        }, {
            "name": "model_59/tf.reshape_44/Reshape/shape",
            "op": "Const",
            "attr": {
                "dtype": {
                    "type": "DT_INT32"
                },
                "value": {
                    "tensor": {
                        "dtype": "DT_INT32",
                        "tensorShape": {
                            "dim": [{
                                "size": "3"
                            }]
                        }
                    }
                }
            }
        }, {
            "name": "model_59/tf.strided_slice_58/ones_like/tensor",
            "op": "Const",
            "attr": {
                "dtype": {
                    "type": "DT_INT64"
                },
                "value": {
                    "tensor": {
                        "dtype": "DT_INT64",
                        "tensorShape": {
                            "dim": [{
                                "size": "3"
                            }]
                        }
                    }
                }
            }
        }, {
            "name": "model_59/tf.strided_slice_58/StridedSlice/end",
            "op": "Const",
            "attr": {
                "dtype": {
                    "type": "DT_INT64"
                },
                "value": {
                    "tensor": {
                        "dtype": "DT_INT64",
                        "tensorShape": {
                            "dim": [{
                                "size": "3"
                            }]
                        }
                    }
                }
            }
        }, {
            "name": "model_59/tf.strided_slice_58/ones_like",
            "op": "Const",
            "attr": {
                "dtype": {
                    "type": "DT_INT64"
                },
                "value": {
                    "tensor": {
                        "dtype": "DT_INT64",
                        "tensorShape": {
                            "dim": [{
                                "size": "3"
                            }]
                        }
                    }
                }
            }
        }, {
            "name": "model_59/tf.concat_62/concat/axis",
            "op": "Const",
            "attr": {
                "value": {
                    "tensor": {
                        "dtype": "DT_INT32",
                        "tensorShape": {}
                    }
                },
                "dtype": {
                    "type": "DT_INT32"
                }
            }
        }, {
            "name": "model_59/tf.math.multiply_760/Mul/y",
            "op": "Const",
            "attr": {
                "dtype": {
                    "type": "DT_FLOAT"
                },
                "value": {
                    "tensor": {
                        "dtype": "DT_FLOAT",
                        "tensorShape": {
                            "dim": [{
                                "size": "1"
                            }, {
                                "size": "1"
                            }, {
                                "size": "8400"
                            }]
                        }
                    }
                }
            }
        }, {
            "name": "model_59/tf.nn.convolution_172/convolution/filter",
            "op": "Const",
            "attr": {
                "value": {
                    "tensor": {
                        "dtype": "DT_FLOAT",
                        "tensorShape": {
                            "dim": [{
                                "size": "3"
                            }, {
                                "size": "3"
                            }, {
                                "size": "64"
                            }, {
                                "size": "64"
                            }]
                        }
                    }
                },
                "dtype": {
                    "type": "DT_FLOAT"
                }
            }
        }, {
            "name": "model_59/tf.math.add_210/Add/y",
            "op": "Const",
            "attr": {
                "value": {
                    "tensor": {
                        "dtype": "DT_FLOAT",
                        "tensorShape": {
                            "dim": [{
                                "size": "64"
                            }]
                        }
                    }
                },
                "dtype": {
                    "type": "DT_FLOAT"
                }
            }
        }, {
            "name": "model_59/tf.nn.convolution_174/convolution/filter",
            "op": "Const",
            "attr": {
                "value": {
                    "tensor": {
                        "dtype": "DT_FLOAT",
                        "tensorShape": {
                            "dim": [{
                                "size": "3"
                            }, {
                                "size": "3"
                            }, {
                                "size": "64"
                            }, {
                                "size": "64"
                            }]
                        }
                    }
                },
                "dtype": {
                    "type": "DT_FLOAT"
                }
            }
        }, {
            "name": "model_59/tf.math.add_212/Add/y",
            "op": "Const",
            "attr": {
                "dtype": {
                    "type": "DT_FLOAT"
                },
                "value": {
                    "tensor": {
                        "dtype": "DT_FLOAT",
                        "tensorShape": {
                            "dim": [{
                                "size": "64"
                            }]
                        }
                    }
                }
            }
        }, {
            "name": "model_59/tf.nn.convolution_179/convolution/filter",
            "op": "Const",
            "attr": {
                "value": {
                    "tensor": {
                        "dtype": "DT_FLOAT",
                        "tensorShape": {
                            "dim": [{
                                "size": "1"
                            }, {
                                "size": "1"
                            }, {
                                "size": "64"
                            }, {
                                "size": "64"
                            }]
                        }
                    }
                },
                "dtype": {
                    "type": "DT_FLOAT"
                }
            }
        }, {
            "name": "model_59/tf.math.add_217/Add/y",
            "op": "Const",
            "attr": {
                "dtype": {
                    "type": "DT_FLOAT"
                },
                "value": {
                    "tensor": {
                        "dtype": "DT_FLOAT",
                        "tensorShape": {
                            "dim": [{
                                "size": "64"
                            }]
                        }
                    }
                }
            }
        }, {
            "name": "model_59/tf.nn.convolution_173/convolution/filter",
            "op": "Const",
            "attr": {
                "value": {
                    "tensor": {
                        "dtype": "DT_FLOAT",
                        "tensorShape": {
                            "dim": [{
                                "size": "3"
                            }, {
                                "size": "3"
                            }, {
                                "size": "64"
                            }, {
                                "size": "80"
                            }]
                        }
                    }
                },
                "dtype": {
                    "type": "DT_FLOAT"
                }
            }
        }, {
            "name": "model_59/tf.math.add_211/Add/y",
            "op": "Const",
            "attr": {
                "dtype": {
                    "type": "DT_FLOAT"
                },
                "value": {
                    "tensor": {
                        "dtype": "DT_FLOAT",
                        "tensorShape": {
                            "dim": [{
                                "size": "80"
                            }]
                        }
                    }
                }
            }
        }, {
            "name": "model_59/tf.nn.convolution_177/convolution/filter",
            "op": "Const",
            "attr": {
                "dtype": {
                    "type": "DT_FLOAT"
                },
                "value": {
                    "tensor": {
                        "dtype": "DT_FLOAT",
                        "tensorShape": {
                            "dim": [{
                                "size": "3"
                            }, {
                                "size": "3"
                            }, {
                                "size": "80"
                            }, {
                                "size": "80"
                            }]
                        }
                    }
                }
            }
        }, {
            "name": "model_59/tf.math.add_215/Add/y",
            "op": "Const",
            "attr": {
                "value": {
                    "tensor": {
                        "dtype": "DT_FLOAT",
                        "tensorShape": {
                            "dim": [{
                                "size": "80"
                            }]
                        }
                    }
                },
                "dtype": {
                    "type": "DT_FLOAT"
                }
            }
        }, {
            "name": "model_59/tf.nn.convolution_182/convolution/filter",
            "op": "Const",
            "attr": {
                "dtype": {
                    "type": "DT_FLOAT"
                },
                "value": {
                    "tensor": {
                        "dtype": "DT_FLOAT",
                        "tensorShape": {
                            "dim": [{
                                "size": "1"
                            }, {
                                "size": "1"
                            }, {
                                "size": "80"
                            }, {
                                "size": "80"
                            }]
                        }
                    }
                }
            }
        }, {
            "name": "model_59/tf.math.add_220/Add/y",
            "op": "Const",
            "attr": {
                "value": {
                    "tensor": {
                        "dtype": "DT_FLOAT",
                        "tensorShape": {
                            "dim": [{
                                "size": "80"
                            }]
                        }
                    }
                },
                "dtype": {
                    "type": "DT_FLOAT"
                }
            }
        }, {
            "name": "model_59/tf.concat_52/concat/axis",
            "op": "Const",
            "attr": {
                "value": {
                    "tensor": {
                        "dtype": "DT_INT32",
                        "tensorShape": {}
                    }
                },
                "dtype": {
                    "type": "DT_INT32"
                }
            }
        }, {
            "name": "model_59/tf.compat.v1.transpose_249/transpose/perm",
            "op": "Const",
            "attr": {
                "value": {
                    "tensor": {
                        "dtype": "DT_INT32",
                        "tensorShape": {
                            "dim": [{
                                "size": "4"
                            }]
                        }
                    }
                },
                "dtype": {
                    "type": "DT_INT32"
                }
            }
        }, {
            "name": "model_59/tf.reshape_32/Reshape/shape",
            "op": "Const",
            "attr": {
                "dtype": {
                    "type": "DT_INT32"
                },
                "value": {
                    "tensor": {
                        "dtype": "DT_INT32",
                        "tensorShape": {
                            "dim": [{
                                "size": "3"
                            }]
                        }
                    }
                }
            }
        }, {
            "name": "model_59/tf.nn.convolution_187/convolution/filter",
            "op": "Const",
            "attr": {
                "value": {
                    "tensor": {
                        "dtype": "DT_FLOAT",
                        "tensorShape": {
                            "dim": [{
                                "size": "3"
                            }, {
                                "size": "3"
                            }, {
                                "size": "128"
                            }, {
                                "size": "64"
                            }]
                        }
                    }
                },
                "dtype": {
                    "type": "DT_FLOAT"
                }
            }
        }, {
            "name": "model_59/tf.math.add_225/Add/y",
            "op": "Const",
            "attr": {
                "value": {
                    "tensor": {
                        "dtype": "DT_FLOAT",
                        "tensorShape": {
                            "dim": [{
                                "size": "64"
                            }]
                        }
                    }
                },
                "dtype": {
                    "type": "DT_FLOAT"
                }
            }
        }, {
            "name": "model_59/tf.nn.convolution_189/convolution/filter",
            "op": "Const",
            "attr": {
                "dtype": {
                    "type": "DT_FLOAT"
                },
                "value": {
                    "tensor": {
                        "dtype": "DT_FLOAT",
                        "tensorShape": {
                            "dim": [{
                                "size": "3"
                            }, {
                                "size": "3"
                            }, {
                                "size": "64"
                            }, {
                                "size": "64"
                            }]
                        }
                    }
                }
            }
        }, {
            "name": "model_59/tf.math.add_227/Add/y",
            "op": "Const",
            "attr": {
                "value": {
                    "tensor": {
                        "dtype": "DT_FLOAT",
                        "tensorShape": {
                            "dim": [{
                                "size": "64"
                            }]
                        }
                    }
                },
                "dtype": {
                    "type": "DT_FLOAT"
                }
            }
        }, {
            "name": "model_59/tf.nn.convolution_192/convolution/filter",
            "op": "Const",
            "attr": {
                "value": {
                    "tensor": {
                        "dtype": "DT_FLOAT",
                        "tensorShape": {
                            "dim": [{
                                "size": "1"
                            }, {
                                "size": "1"
                            }, {
                                "size": "64"
                            }, {
                                "size": "64"
                            }]
                        }
                    }
                },
                "dtype": {
                    "type": "DT_FLOAT"
                }
            }
        }, {
            "name": "model_59/tf.math.add_230/Add/y",
            "op": "Const",
            "attr": {
                "value": {
                    "tensor": {
                        "dtype": "DT_FLOAT",
                        "tensorShape": {
                            "dim": [{
                                "size": "64"
                            }]
                        }
                    }
                },
                "dtype": {
                    "type": "DT_FLOAT"
                }
            }
        }, {
            "name": "model_59/tf.nn.convolution_188/convolution/filter",
            "op": "Const",
            "attr": {
                "dtype": {
                    "type": "DT_FLOAT"
                },
                "value": {
                    "tensor": {
                        "dtype": "DT_FLOAT",
                        "tensorShape": {
                            "dim": [{
                                "size": "3"
                            }, {
                                "size": "3"
                            }, {
                                "size": "128"
                            }, {
                                "size": "80"
                            }]
                        }
                    }
                }
            }
        }, {
            "name": "model_59/tf.math.add_226/Add/y",
            "op": "Const",
            "attr": {
                "value": {
                    "tensor": {
                        "dtype": "DT_FLOAT",
                        "tensorShape": {
                            "dim": [{
                                "size": "80"
                            }]
                        }
                    }
                },
                "dtype": {
                    "type": "DT_FLOAT"
                }
            }
        }, {
            "name": "model_59/tf.nn.convolution_190/convolution/filter",
            "op": "Const",
            "attr": {
                "dtype": {
                    "type": "DT_FLOAT"
                },
                "value": {
                    "tensor": {
                        "dtype": "DT_FLOAT",
                        "tensorShape": {
                            "dim": [{
                                "size": "3"
                            }, {
                                "size": "3"
                            }, {
                                "size": "80"
                            }, {
                                "size": "80"
                            }]
                        }
                    }
                }
            }
        }, {
            "name": "model_59/tf.math.add_228/Add/y",
            "op": "Const",
            "attr": {
                "value": {
                    "tensor": {
                        "dtype": "DT_FLOAT",
                        "tensorShape": {
                            "dim": [{
                                "size": "80"
                            }]
                        }
                    }
                },
                "dtype": {
                    "type": "DT_FLOAT"
                }
            }
        }, {
            "name": "model_59/tf.nn.convolution_193/convolution/filter",
            "op": "Const",
            "attr": {
                "value": {
                    "tensor": {
                        "dtype": "DT_FLOAT",
                        "tensorShape": {
                            "dim": [{
                                "size": "1"
                            }, {
                                "size": "1"
                            }, {
                                "size": "80"
                            }, {
                                "size": "80"
                            }]
                        }
                    }
                },
                "dtype": {
                    "type": "DT_FLOAT"
                }
            }
        }, {
            "name": "model_59/tf.math.add_231/Add/y",
            "op": "Const",
            "attr": {
                "dtype": {
                    "type": "DT_FLOAT"
                },
                "value": {
                    "tensor": {
                        "dtype": "DT_FLOAT",
                        "tensorShape": {
                            "dim": [{
                                "size": "80"
                            }]
                        }
                    }
                }
            }
        }, {
            "name": "model_59/tf.concat_55/concat/axis",
            "op": "Const",
            "attr": {
                "dtype": {
                    "type": "DT_INT32"
                },
                "value": {
                    "tensor": {
                        "dtype": "DT_INT32",
                        "tensorShape": {}
                    }
                }
            }
        }, {
            "name": "model_59/tf.compat.v1.transpose_263/transpose/perm",
            "op": "Const",
            "attr": {
                "dtype": {
                    "type": "DT_INT32"
                },
                "value": {
                    "tensor": {
                        "dtype": "DT_INT32",
                        "tensorShape": {
                            "dim": [{
                                "size": "4"
                            }]
                        }
                    }
                }
            }
        }, {
            "name": "model_59/tf.reshape_35/Reshape/shape",
            "op": "Const",
            "attr": {
                "dtype": {
                    "type": "DT_INT32"
                },
                "value": {
                    "tensor": {
                        "dtype": "DT_INT32",
                        "tensorShape": {
                            "dim": [{
                                "size": "3"
                            }]
                        }
                    }
                }
            }
        }, {
            "name": "model_59/tf.nn.convolution_197/convolution/filter",
            "op": "Const",
            "attr": {
                "dtype": {
                    "type": "DT_FLOAT"
                },
                "value": {
                    "tensor": {
                        "dtype": "DT_FLOAT",
                        "tensorShape": {
                            "dim": [{
                                "size": "3"
                            }, {
                                "size": "3"
                            }, {
                                "size": "256"
                            }, {
                                "size": "64"
                            }]
                        }
                    }
                }
            }
        }, {
            "name": "model_59/tf.math.add_235/Add/y",
            "op": "Const",
            "attr": {
                "value": {
                    "tensor": {
                        "dtype": "DT_FLOAT",
                        "tensorShape": {
                            "dim": [{
                                "size": "64"
                            }]
                        }
                    }
                },
                "dtype": {
                    "type": "DT_FLOAT"
                }
            }
        }, {
            "name": "model_59/tf.nn.convolution_199/convolution/filter",
            "op": "Const",
            "attr": {
                "value": {
                    "tensor": {
                        "dtype": "DT_FLOAT",
                        "tensorShape": {
                            "dim": [{
                                "size": "3"
                            }, {
                                "size": "3"
                            }, {
                                "size": "64"
                            }, {
                                "size": "64"
                            }]
                        }
                    }
                },
                "dtype": {
                    "type": "DT_FLOAT"
                }
            }
        }, {
            "name": "model_59/tf.math.add_237/Add/y",
            "op": "Const",
            "attr": {
                "dtype": {
                    "type": "DT_FLOAT"
                },
                "value": {
                    "tensor": {
                        "dtype": "DT_FLOAT",
                        "tensorShape": {
                            "dim": [{
                                "size": "64"
                            }]
                        }
                    }
                }
            }
        }, {
            "name": "model_59/tf.nn.convolution_201/convolution/filter",
            "op": "Const",
            "attr": {
                "value": {
                    "tensor": {
                        "dtype": "DT_FLOAT",
                        "tensorShape": {
                            "dim": [{
                                "size": "1"
                            }, {
                                "size": "1"
                            }, {
                                "size": "64"
                            }, {
                                "size": "64"
                            }]
                        }
                    }
                },
                "dtype": {
                    "type": "DT_FLOAT"
                }
            }
        }, {
            "name": "model_59/tf.math.add_239/Add/y",
            "op": "Const",
            "attr": {
                "dtype": {
                    "type": "DT_FLOAT"
                },
                "value": {
                    "tensor": {
                        "dtype": "DT_FLOAT",
                        "tensorShape": {
                            "dim": [{
                                "size": "64"
                            }]
                        }
                    }
                }
            }
        }, {
            "name": "model_59/tf.strided_slice_54/ones_like/tensor",
            "op": "Const",
            "attr": {
                "dtype": {
                    "type": "DT_INT64"
                },
                "value": {
                    "tensor": {
                        "dtype": "DT_INT64",
                        "tensorShape": {
                            "dim": [{
                                "size": "4"
                            }]
                        }
                    }
                }
            }
        }, {
            "name": "model_59/tf.strided_slice_54/StridedSlice/end",
            "op": "Const",
            "attr": {
                "value": {
                    "tensor": {
                        "dtype": "DT_INT64",
                        "tensorShape": {
                            "dim": [{
                                "size": "4"
                            }]
                        }
                    }
                },
                "dtype": {
                    "type": "DT_INT64"
                }
            }
        }, {
            "name": "model_59/tf.strided_slice_54/ones_like",
            "op": "Const",
            "attr": {
                "dtype": {
                    "type": "DT_INT64"
                },
                "value": {
                    "tensor": {
                        "dtype": "DT_INT64",
                        "tensorShape": {
                            "dim": [{
                                "size": "4"
                            }]
                        }
                    }
                }
            }
        }, {
            "name": "model_59/tf.strided_slice_52/ones_like/tensor",
            "op": "Const",
            "attr": {
                "dtype": {
                    "type": "DT_INT64"
                },
                "value": {
                    "tensor": {
                        "dtype": "DT_INT64",
                        "tensorShape": {
                            "dim": [{
                                "size": "4"
                            }]
                        }
                    }
                }
            }
        }, {
            "name": "model_59/tf.strided_slice_52/StridedSlice/end",
            "op": "Const",
            "attr": {
                "dtype": {
                    "type": "DT_INT64"
                },
                "value": {
                    "tensor": {
                        "dtype": "DT_INT64",
                        "tensorShape": {
                            "dim": [{
                                "size": "4"
                            }]
                        }
                    }
                }
            }
        }, {
            "name": "model_59/tf.strided_slice_52/ones_like",
            "op": "Const",
            "attr": {
                "value": {
                    "tensor": {
                        "dtype": "DT_INT64",
                        "tensorShape": {
                            "dim": [{
                                "size": "4"
                            }]
                        }
                    }
                },
                "dtype": {
                    "type": "DT_INT64"
                }
            }
        }, {
            "name": "model_59/tf.strided_slice_50/ones_like/tensor",
            "op": "Const",
            "attr": {
                "value": {
                    "tensor": {
                        "dtype": "DT_INT64",
                        "tensorShape": {
                            "dim": [{
                                "size": "4"
                            }]
                        }
                    }
                },
                "dtype": {
                    "type": "DT_INT64"
                }
            }
        }, {
            "name": "model_59/tf.strided_slice_50/StridedSlice/end",
            "op": "Const",
            "attr": {
                "dtype": {
                    "type": "DT_INT64"
                },
                "value": {
                    "tensor": {
                        "dtype": "DT_INT64",
                        "tensorShape": {
                            "dim": [{
                                "size": "4"
                            }]
                        }
                    }
                }
            }
        }, {
            "name": "model_59/tf.strided_slice_50/ones_like",
            "op": "Const",
            "attr": {
                "value": {
                    "tensor": {
                        "dtype": "DT_INT64",
                        "tensorShape": {
                            "dim": [{
                                "size": "4"
                            }]
                        }
                    }
                },
                "dtype": {
                    "type": "DT_INT64"
                }
            }
        }, {
            "name": "model_59/tf.image.resize_5/resize/size",
            "op": "Const",
            "attr": {
                "value": {
                    "tensor": {
                        "dtype": "DT_INT32",
                        "tensorShape": {
                            "dim": [{
                                "size": "2"
                            }]
                        }
                    }
                },
                "dtype": {
                    "type": "DT_INT32"
                }
            }
        }, {
            "name": "model_59/tf.concat_47/concat/axis",
            "op": "Const",
            "attr": {
                "value": {
                    "tensor": {
                        "dtype": "DT_INT32",
                        "tensorShape": {}
                    }
                },
                "dtype": {
                    "type": "DT_INT32"
                }
            }
        }, {
            "name": "model_59/tf.nn.convolution_167/convolution/filter",
            "op": "Const",
            "attr": {
                "value": {
                    "tensor": {
                        "dtype": "DT_FLOAT",
                        "tensorShape": {
                            "dim": [{
                                "size": "1"
                            }, {
                                "size": "1"
                            }, {
                                "size": "192"
                            }, {
                                "size": "64"
                            }]
                        }
                    }
                },
                "dtype": {
                    "type": "DT_FLOAT"
                }
            }
        }, {
            "name": "model_59/tf.math.add_205/Add/y",
            "op": "Const",
            "attr": {
                "dtype": {
                    "type": "DT_FLOAT"
                },
                "value": {
                    "tensor": {
                        "dtype": "DT_FLOAT",
                        "tensorShape": {
                            "dim": [{
                                "size": "64"
                            }]
                        }
                    }
                }
            }
        }, {
            "name": "model_59/tf.strided_slice_51/ones_like/tensor",
            "op": "Const",
            "attr": {
                "dtype": {
                    "type": "DT_INT64"
                },
                "value": {
                    "tensor": {
                        "dtype": "DT_INT64",
                        "tensorShape": {
                            "dim": [{
                                "size": "4"
                            }]
                        }
                    }
                }
            }
        }, {
            "name": "model_59/tf.strided_slice_51/StridedSlice/end",
            "op": "Const",
            "attr": {
                "value": {
                    "tensor": {
                        "dtype": "DT_INT64",
                        "tensorShape": {
                            "dim": [{
                                "size": "4"
                            }]
                        }
                    }
                },
                "dtype": {
                    "type": "DT_INT64"
                }
            }
        }, {
            "name": "model_59/tf.strided_slice_51/ones_like",
            "op": "Const",
            "attr": {
                "value": {
                    "tensor": {
                        "dtype": "DT_INT64",
                        "tensorShape": {
                            "dim": [{
                                "size": "4"
                            }]
                        }
                    }
                },
                "dtype": {
                    "type": "DT_INT64"
                }
            }
        }, {
            "name": "model_59/tf.nn.convolution_168/convolution/filter",
            "op": "Const",
            "attr": {
                "dtype": {
                    "type": "DT_FLOAT"
                },
                "value": {
                    "tensor": {
                        "dtype": "DT_FLOAT",
                        "tensorShape": {
                            "dim": [{
                                "size": "3"
                            }, {
                                "size": "3"
                            }, {
                                "size": "32"
                            }, {
                                "size": "32"
                            }]
                        }
                    }
                }
            }
        }, {
            "name": "model_59/tf.math.add_206/Add/y",
            "op": "Const",
            "attr": {
                "dtype": {
                    "type": "DT_FLOAT"
                },
                "value": {
                    "tensor": {
                        "dtype": "DT_FLOAT",
                        "tensorShape": {
                            "dim": [{
                                "size": "32"
                            }]
                        }
                    }
                }
            }
        }, {
            "name": "model_59/tf.nn.convolution_169/convolution/filter",
            "op": "Const",
            "attr": {
                "value": {
                    "tensor": {
                        "dtype": "DT_FLOAT",
                        "tensorShape": {
                            "dim": [{
                                "size": "3"
                            }, {
                                "size": "3"
                            }, {
                                "size": "32"
                            }, {
                                "size": "32"
                            }]
                        }
                    }
                },
                "dtype": {
                    "type": "DT_FLOAT"
                }
            }
        }, {
            "name": "model_59/tf.math.add_207/Add/y",
            "op": "Const",
            "attr": {
                "dtype": {
                    "type": "DT_FLOAT"
                },
                "value": {
                    "tensor": {
                        "dtype": "DT_FLOAT",
                        "tensorShape": {
                            "dim": [{
                                "size": "32"
                            }]
                        }
                    }
                }
            }
        }, {
            "name": "model_59/tf.concat_48/concat/axis",
            "op": "Const",
            "attr": {
                "dtype": {
                    "type": "DT_INT32"
                },
                "value": {
                    "tensor": {
                        "dtype": "DT_INT32",
                        "tensorShape": {}
                    }
                }
            }
        }, {
            "name": "model_59/tf.nn.convolution_170/convolution/filter",
            "op": "Const",
            "attr": {
                "value": {
                    "tensor": {
                        "dtype": "DT_FLOAT",
                        "tensorShape": {
                            "dim": [{
                                "size": "1"
                            }, {
                                "size": "1"
                            }, {
                                "size": "96"
                            }, {
                                "size": "64"
                            }]
                        }
                    }
                },
                "dtype": {
                    "type": "DT_FLOAT"
                }
            }
        }, {
            "name": "model_59/tf.math.add_208/Add/y",
            "op": "Const",
            "attr": {
                "dtype": {
                    "type": "DT_FLOAT"
                },
                "value": {
                    "tensor": {
                        "dtype": "DT_FLOAT",
                        "tensorShape": {
                            "dim": [{
                                "size": "64"
                            }]
                        }
                    }
                }
            }
        }, {
            "name": "model_59/tf.compat.v1.pad_19/Pad/paddings",
            "op": "Const",
            "attr": {
                "value": {
                    "tensor": {
                        "dtype": "DT_INT32",
                        "tensorShape": {
                            "dim": [{
                                "size": "4"
                            }, {
                                "size": "2"
                            }]
                        }
                    }
                },
                "dtype": {
                    "type": "DT_INT32"
                }
            }
        }, {
            "name": "model_59/tf.nn.convolution_171/convolution/filter",
            "op": "Const",
            "attr": {
                "dtype": {
                    "type": "DT_FLOAT"
                },
                "value": {
                    "tensor": {
                        "dtype": "DT_FLOAT",
                        "tensorShape": {
                            "dim": [{
                                "size": "3"
                            }, {
                                "size": "3"
                            }, {
                                "size": "64"
                            }, {
                                "size": "64"
                            }]
                        }
                    }
                }
            }
        }, {
            "name": "model_59/tf.math.add_209/Add/y",
            "op": "Const",
            "attr": {
                "value": {
                    "tensor": {
                        "dtype": "DT_FLOAT",
                        "tensorShape": {
                            "dim": [{
                                "size": "64"
                            }]
                        }
                    }
                },
                "dtype": {
                    "type": "DT_FLOAT"
                }
            }
        }, {
            "name": "model_59/tf.strided_slice_48/ones_like/tensor",
            "op": "Const",
            "attr": {
                "value": {
                    "tensor": {
                        "dtype": "DT_INT64",
                        "tensorShape": {
                            "dim": [{
                                "size": "4"
                            }]
                        }
                    }
                },
                "dtype": {
                    "type": "DT_INT64"
                }
            }
        }, {
            "name": "model_59/tf.strided_slice_48/StridedSlice/end",
            "op": "Const",
            "attr": {
                "dtype": {
                    "type": "DT_INT64"
                },
                "value": {
                    "tensor": {
                        "dtype": "DT_INT64",
                        "tensorShape": {
                            "dim": [{
                                "size": "4"
                            }]
                        }
                    }
                }
            }
        }, {
            "name": "model_59/tf.strided_slice_48/ones_like",
            "op": "Const",
            "attr": {
                "value": {
                    "tensor": {
                        "dtype": "DT_INT64",
                        "tensorShape": {
                            "dim": [{
                                "size": "4"
                            }]
                        }
                    }
                },
                "dtype": {
                    "type": "DT_INT64"
                }
            }
        }, {
            "name": "model_59/tf.image.resize_4/resize/size",
            "op": "Const",
            "attr": {
                "dtype": {
                    "type": "DT_INT32"
                },
                "value": {
                    "tensor": {
                        "dtype": "DT_INT32",
                        "tensorShape": {
                            "dim": [{
                                "size": "2"
                            }]
                        }
                    }
                }
            }
        }, {
            "name": "model_59/tf.concat_45/concat/axis",
            "op": "Const",
            "attr": {
                "dtype": {
                    "type": "DT_INT32"
                },
                "value": {
                    "tensor": {
                        "dtype": "DT_INT32",
                        "tensorShape": {}
                    }
                }
            }
        }, {
            "name": "model_59/tf.nn.convolution_163/convolution/filter",
            "op": "Const",
            "attr": {
                "value": {
                    "tensor": {
                        "dtype": "DT_FLOAT",
                        "tensorShape": {
                            "dim": [{
                                "size": "1"
                            }, {
                                "size": "1"
                            }, {
                                "size": "384"
                            }, {
                                "size": "128"
                            }]
                        }
                    }
                },
                "dtype": {
                    "type": "DT_FLOAT"
                }
            }
        }, {
            "name": "model_59/tf.math.add_201/Add/y",
            "op": "Const",
            "attr": {
                "value": {
                    "tensor": {
                        "dtype": "DT_FLOAT",
                        "tensorShape": {
                            "dim": [{
                                "size": "128"
                            }]
                        }
                    }
                },
                "dtype": {
                    "type": "DT_FLOAT"
                }
            }
        }, {
            "name": "model_59/tf.strided_slice_49/ones_like/tensor",
            "op": "Const",
            "attr": {
                "dtype": {
                    "type": "DT_INT64"
                },
                "value": {
                    "tensor": {
                        "dtype": "DT_INT64",
                        "tensorShape": {
                            "dim": [{
                                "size": "4"
                            }]
                        }
                    }
                }
            }
        }, {
            "name": "model_59/tf.strided_slice_49/StridedSlice/end",
            "op": "Const",
            "attr": {
                "value": {
                    "tensor": {
                        "dtype": "DT_INT64",
                        "tensorShape": {
                            "dim": [{
                                "size": "4"
                            }]
                        }
                    }
                },
                "dtype": {
                    "type": "DT_INT64"
                }
            }
        }, {
            "name": "model_59/tf.strided_slice_49/ones_like",
            "op": "Const",
            "attr": {
                "dtype": {
                    "type": "DT_INT64"
                },
                "value": {
                    "tensor": {
                        "dtype": "DT_INT64",
                        "tensorShape": {
                            "dim": [{
                                "size": "4"
                            }]
                        }
                    }
                }
            }
        }, {
            "name": "model_59/tf.nn.convolution_164/convolution/filter",
            "op": "Const",
            "attr": {
                "dtype": {
                    "type": "DT_FLOAT"
                },
                "value": {
                    "tensor": {
                        "dtype": "DT_FLOAT",
                        "tensorShape": {
                            "dim": [{
                                "size": "3"
                            }, {
                                "size": "3"
                            }, {
                                "size": "64"
                            }, {
                                "size": "64"
                            }]
                        }
                    }
                }
            }
        }, {
            "name": "model_59/tf.math.add_202/Add/y",
            "op": "Const",
            "attr": {
                "value": {
                    "tensor": {
                        "dtype": "DT_FLOAT",
                        "tensorShape": {
                            "dim": [{
                                "size": "64"
                            }]
                        }
                    }
                },
                "dtype": {
                    "type": "DT_FLOAT"
                }
            }
        }, {
            "name": "model_59/tf.nn.convolution_165/convolution/filter",
            "op": "Const",
            "attr": {
                "value": {
                    "tensor": {
                        "dtype": "DT_FLOAT",
                        "tensorShape": {
                            "dim": [{
                                "size": "3"
                            }, {
                                "size": "3"
                            }, {
                                "size": "64"
                            }, {
                                "size": "64"
                            }]
                        }
                    }
                },
                "dtype": {
                    "type": "DT_FLOAT"
                }
            }
        }, {
            "name": "model_59/tf.math.add_203/Add/y",
            "op": "Const",
            "attr": {
                "dtype": {
                    "type": "DT_FLOAT"
                },
                "value": {
                    "tensor": {
                        "dtype": "DT_FLOAT",
                        "tensorShape": {
                            "dim": [{
                                "size": "64"
                            }]
                        }
                    }
                }
            }
        }, {
            "name": "model_59/tf.concat_46/concat/axis",
            "op": "Const",
            "attr": {
                "value": {
                    "tensor": {
                        "dtype": "DT_INT32",
                        "tensorShape": {}
                    }
                },
                "dtype": {
                    "type": "DT_INT32"
                }
            }
        }, {
            "name": "model_59/tf.nn.convolution_166/convolution/filter",
            "op": "Const",
            "attr": {
                "dtype": {
                    "type": "DT_FLOAT"
                },
                "value": {
                    "tensor": {
                        "dtype": "DT_FLOAT",
                        "tensorShape": {
                            "dim": [{
                                "size": "1"
                            }, {
                                "size": "1"
                            }, {
                                "size": "192"
                            }, {
                                "size": "128"
                            }]
                        }
                    }
                }
            }
        }, {
            "name": "model_59/tf.math.add_204/Add/y",
            "op": "Const",
            "attr": {
                "value": {
                    "tensor": {
                        "dtype": "DT_FLOAT",
                        "tensorShape": {
                            "dim": [{
                                "size": "128"
                            }]
                        }
                    }
                },
                "dtype": {
                    "type": "DT_FLOAT"
                }
            }
        }, {
            "name": "model_59/tf.concat_49/concat/axis",
            "op": "Const",
            "attr": {
                "value": {
                    "tensor": {
                        "dtype": "DT_INT32",
                        "tensorShape": {}
                    }
                },
                "dtype": {
                    "type": "DT_INT32"
                }
            }
        }, {
            "name": "model_59/tf.nn.convolution_178/convolution/filter",
            "op": "Const",
            "attr": {
                "value": {
                    "tensor": {
                        "dtype": "DT_FLOAT",
                        "tensorShape": {
                            "dim": [{
                                "size": "1"
                            }, {
                                "size": "1"
                            }, {
                                "size": "192"
                            }, {
                                "size": "128"
                            }]
                        }
                    }
                },
                "dtype": {
                    "type": "DT_FLOAT"
                }
            }
        }, {
            "name": "model_59/tf.math.add_216/Add/y",
            "op": "Const",
            "attr": {
                "dtype": {
                    "type": "DT_FLOAT"
                },
                "value": {
                    "tensor": {
                        "dtype": "DT_FLOAT",
                        "tensorShape": {
                            "dim": [{
                                "size": "128"
                            }]
                        }
                    }
                }
            }
        }, {
            "name": "model_59/tf.strided_slice_53/ones_like/tensor",
            "op": "Const",
            "attr": {
                "dtype": {
                    "type": "DT_INT64"
                },
                "value": {
                    "tensor": {
                        "dtype": "DT_INT64",
                        "tensorShape": {
                            "dim": [{
                                "size": "4"
                            }]
                        }
                    }
                }
            }
        }, {
            "name": "model_59/tf.strided_slice_53/StridedSlice/end",
            "op": "Const",
            "attr": {
                "value": {
                    "tensor": {
                        "dtype": "DT_INT64",
                        "tensorShape": {
                            "dim": [{
                                "size": "4"
                            }]
                        }
                    }
                },
                "dtype": {
                    "type": "DT_INT64"
                }
            }
        }, {
            "name": "model_59/tf.strided_slice_53/ones_like",
            "op": "Const",
            "attr": {
                "value": {
                    "tensor": {
                        "dtype": "DT_INT64",
                        "tensorShape": {
                            "dim": [{
                                "size": "4"
                            }]
                        }
                    }
                },
                "dtype": {
                    "type": "DT_INT64"
                }
            }
        }, {
            "name": "model_59/tf.nn.convolution_183/convolution/filter",
            "op": "Const",
            "attr": {
                "value": {
                    "tensor": {
                        "dtype": "DT_FLOAT",
                        "tensorShape": {
                            "dim": [{
                                "size": "3"
                            }, {
                                "size": "3"
                            }, {
                                "size": "64"
                            }, {
                                "size": "64"
                            }]
                        }
                    }
                },
                "dtype": {
                    "type": "DT_FLOAT"
                }
            }
        }, {
            "name": "model_59/tf.math.add_221/Add/y",
            "op": "Const",
            "attr": {
                "dtype": {
                    "type": "DT_FLOAT"
                },
                "value": {
                    "tensor": {
                        "dtype": "DT_FLOAT",
                        "tensorShape": {
                            "dim": [{
                                "size": "64"
                            }]
                        }
                    }
                }
            }
        }, {
            "name": "model_59/tf.nn.convolution_184/convolution/filter",
            "op": "Const",
            "attr": {
                "value": {
                    "tensor": {
                        "dtype": "DT_FLOAT",
                        "tensorShape": {
                            "dim": [{
                                "size": "3"
                            }, {
                                "size": "3"
                            }, {
                                "size": "64"
                            }, {
                                "size": "64"
                            }]
                        }
                    }
                },
                "dtype": {
                    "type": "DT_FLOAT"
                }
            }
        }, {
            "name": "model_59/tf.math.add_222/Add/y",
            "op": "Const",
            "attr": {
                "dtype": {
                    "type": "DT_FLOAT"
                },
                "value": {
                    "tensor": {
                        "dtype": "DT_FLOAT",
                        "tensorShape": {
                            "dim": [{
                                "size": "64"
                            }]
                        }
                    }
                }
            }
        }, {
            "name": "model_59/tf.concat_53/concat/axis",
            "op": "Const",
            "attr": {
                "value": {
                    "tensor": {
                        "dtype": "DT_INT32",
                        "tensorShape": {}
                    }
                },
                "dtype": {
                    "type": "DT_INT32"
                }
            }
        }, {
            "name": "model_59/tf.nn.convolution_185/convolution/filter",
            "op": "Const",
            "attr": {
                "dtype": {
                    "type": "DT_FLOAT"
                },
                "value": {
                    "tensor": {
                        "dtype": "DT_FLOAT",
                        "tensorShape": {
                            "dim": [{
                                "size": "1"
                            }, {
                                "size": "1"
                            }, {
                                "size": "192"
                            }, {
                                "size": "128"
                            }]
                        }
                    }
                }
            }
        }, {
            "name": "model_59/tf.math.add_223/Add/y",
            "op": "Const",
            "attr": {
                "value": {
                    "tensor": {
                        "dtype": "DT_FLOAT",
                        "tensorShape": {
                            "dim": [{
                                "size": "128"
                            }]
                        }
                    }
                },
                "dtype": {
                    "type": "DT_FLOAT"
                }
            }
        }, {
            "name": "model_59/tf.compat.v1.pad_20/Pad/paddings",
            "op": "Const",
            "attr": {
                "value": {
                    "tensor": {
                        "dtype": "DT_INT32",
                        "tensorShape": {
                            "dim": [{
                                "size": "4"
                            }, {
                                "size": "2"
                            }]
                        }
                    }
                },
                "dtype": {
                    "type": "DT_INT32"
                }
            }
        }, {
            "name": "model_59/tf.nn.convolution_186/convolution/filter",
            "op": "Const",
            "attr": {
                "value": {
                    "tensor": {
                        "dtype": "DT_FLOAT",
                        "tensorShape": {
                            "dim": [{
                                "size": "3"
                            }, {
                                "size": "3"
                            }, {
                                "size": "128"
                            }, {
                                "size": "128"
                            }]
                        }
                    }
                },
                "dtype": {
                    "type": "DT_FLOAT"
                }
            }
        }, {
            "name": "model_59/tf.math.add_224/Add/y",
            "op": "Const",
            "attr": {
                "dtype": {
                    "type": "DT_FLOAT"
                },
                "value": {
                    "tensor": {
                        "dtype": "DT_FLOAT",
                        "tensorShape": {
                            "dim": [{
                                "size": "128"
                            }]
                        }
                    }
                }
            }
        }, {
            "name": "model_59/tf.strided_slice_46/ones_like/tensor",
            "op": "Const",
            "attr": {
                "value": {
                    "tensor": {
                        "dtype": "DT_INT64",
                        "tensorShape": {
                            "dim": [{
                                "size": "4"
                            }]
                        }
                    }
                },
                "dtype": {
                    "type": "DT_INT64"
                }
            }
        }, {
            "name": "model_59/tf.strided_slice_46/StridedSlice/end",
            "op": "Const",
            "attr": {
                "value": {
                    "tensor": {
                        "dtype": "DT_INT64",
                        "tensorShape": {
                            "dim": [{
                                "size": "4"
                            }]
                        }
                    }
                },
                "dtype": {
                    "type": "DT_INT64"
                }
            }
        }, {
            "name": "model_59/tf.strided_slice_46/ones_like",
            "op": "Const",
            "attr": {
                "value": {
                    "tensor": {
                        "dtype": "DT_INT64",
                        "tensorShape": {
                            "dim": [{
                                "size": "4"
                            }]
                        }
                    }
                },
                "dtype": {
                    "type": "DT_INT64"
                }
            }
        }, {
            "name": "model_59/tf.strided_slice_44/ones_like/tensor",
            "op": "Const",
            "attr": {
                "value": {
                    "tensor": {
                        "dtype": "DT_INT64",
                        "tensorShape": {
                            "dim": [{
                                "size": "4"
                            }]
                        }
                    }
                },
                "dtype": {
                    "type": "DT_INT64"
                }
            }
        }, {
            "name": "model_59/tf.strided_slice_44/StridedSlice/end",
            "op": "Const",
            "attr": {
                "dtype": {
                    "type": "DT_INT64"
                },
                "value": {
                    "tensor": {
                        "dtype": "DT_INT64",
                        "tensorShape": {
                            "dim": [{
                                "size": "4"
                            }]
                        }
                    }
                }
            }
        }, {
            "name": "model_59/tf.strided_slice_44/ones_like",
            "op": "Const",
            "attr": {
                "dtype": {
                    "type": "DT_INT64"
                },
                "value": {
                    "tensor": {
                        "dtype": "DT_INT64",
                        "tensorShape": {
                            "dim": [{
                                "size": "4"
                            }]
                        }
                    }
                }
            }
        }, {
            "name": "model_59/tf.strided_slice_42/ones_like/tensor",
            "op": "Const",
            "attr": {
                "value": {
                    "tensor": {
                        "dtype": "DT_INT64",
                        "tensorShape": {
                            "dim": [{
                                "size": "4"
                            }]
                        }
                    }
                },
                "dtype": {
                    "type": "DT_INT64"
                }
            }
        }, {
            "name": "model_59/tf.strided_slice_42/StridedSlice/end",
            "op": "Const",
            "attr": {
                "dtype": {
                    "type": "DT_INT64"
                },
                "value": {
                    "tensor": {
                        "dtype": "DT_INT64",
                        "tensorShape": {
                            "dim": [{
                                "size": "4"
                            }]
                        }
                    }
                }
            }
        }, {
            "name": "model_59/tf.strided_slice_42/ones_like",
            "op": "Const",
            "attr": {
                "dtype": {
                    "type": "DT_INT64"
                },
                "value": {
                    "tensor": {
                        "dtype": "DT_INT64",
                        "tensorShape": {
                            "dim": [{
                                "size": "4"
                            }]
                        }
                    }
                }
            }
        }, {
            "name": "model_59/tf.strided_slice_40/ones_like/tensor",
            "op": "Const",
            "attr": {
                "value": {
                    "tensor": {
                        "dtype": "DT_INT64",
                        "tensorShape": {
                            "dim": [{
                                "size": "4"
                            }]
                        }
                    }
                },
                "dtype": {
                    "type": "DT_INT64"
                }
            }
        }, {
            "name": "model_59/tf.strided_slice_40/StridedSlice/end",
            "op": "Const",
            "attr": {
                "dtype": {
                    "type": "DT_INT64"
                },
                "value": {
                    "tensor": {
                        "dtype": "DT_INT64",
                        "tensorShape": {
                            "dim": [{
                                "size": "4"
                            }]
                        }
                    }
                }
            }
        }, {
            "name": "model_59/tf.strided_slice_40/ones_like",
            "op": "Const",
            "attr": {
                "value": {
                    "tensor": {
                        "dtype": "DT_INT64",
                        "tensorShape": {
                            "dim": [{
                                "size": "4"
                            }]
                        }
                    }
                },
                "dtype": {
                    "type": "DT_INT64"
                }
            }
        }, {
            "name": "model_59/tf.compat.v1.pad_14/Pad/paddings",
            "op": "Const",
            "attr": {
                "dtype": {
                    "type": "DT_INT32"
                },
                "value": {
                    "tensor": {
                        "dtype": "DT_INT32",
                        "tensorShape": {
                            "dim": [{
                                "size": "4"
                            }, {
                                "size": "2"
                            }]
                        }
                    }
                }
            }
        }, {
            "name": "model_59/tf.nn.convolution_136/convolution/filter",
            "op": "Const",
            "attr": {
                "dtype": {
                    "type": "DT_FLOAT"
                },
                "value": {
                    "tensor": {
                        "dtype": "DT_FLOAT",
                        "tensorShape": {
                            "dim": [{
                                "size": "3"
                            }, {
                                "size": "3"
                            }, {
                                "size": "3"
                            }, {
                                "size": "16"
                            }]
                        }
                    }
                }
            }
        }, {
            "name": "model_59/tf.math.add_162/Add/y",
            "op": "Const",
            "attr": {
                "dtype": {
                    "type": "DT_FLOAT"
                },
                "value": {
                    "tensor": {
                        "dtype": "DT_FLOAT",
                        "tensorShape": {
                            "dim": [{
                                "size": "16"
                            }]
                        }
                    }
                }
            }
        }, {
            "name": "model_59/tf.compat.v1.pad_15/Pad/paddings",
            "op": "Const",
            "attr": {
                "dtype": {
                    "type": "DT_INT32"
                },
                "value": {
                    "tensor": {
                        "dtype": "DT_INT32",
                        "tensorShape": {
                            "dim": [{
                                "size": "4"
                            }, {
                                "size": "2"
                            }]
                        }
                    }
                }
            }
        }, {
            "name": "model_59/tf.nn.convolution_137/convolution/filter",
            "op": "Const",
            "attr": {
                "dtype": {
                    "type": "DT_FLOAT"
                },
                "value": {
                    "tensor": {
                        "dtype": "DT_FLOAT",
                        "tensorShape": {
                            "dim": [{
                                "size": "3"
                            }, {
                                "size": "3"
                            }, {
                                "size": "16"
                            }, {
                                "size": "32"
                            }]
                        }
                    }
                }
            }
        }, {
            "name": "model_59/tf.math.add_163/Add/y",
            "op": "Const",
            "attr": {
                "value": {
                    "tensor": {
                        "dtype": "DT_FLOAT",
                        "tensorShape": {
                            "dim": [{
                                "size": "32"
                            }]
                        }
                    }
                },
                "dtype": {
                    "type": "DT_FLOAT"
                }
            }
        }, {
            "name": "model_59/tf.nn.convolution_138/convolution/filter",
            "op": "Const",
            "attr": {
                "value": {
                    "tensor": {
                        "dtype": "DT_FLOAT",
                        "tensorShape": {
                            "dim": [{
                                "size": "1"
                            }, {
                                "size": "1"
                            }, {
                                "size": "32"
                            }, {
                                "size": "32"
                            }]
                        }
                    }
                },
                "dtype": {
                    "type": "DT_FLOAT"
                }
            }
        }, {
            "name": "model_59/tf.math.add_164/Add/y",
            "op": "Const",
            "attr": {
                "dtype": {
                    "type": "DT_FLOAT"
                },
                "value": {
                    "tensor": {
                        "dtype": "DT_FLOAT",
                        "tensorShape": {
                            "dim": [{
                                "size": "32"
                            }]
                        }
                    }
                }
            }
        }, {
            "name": "model_59/tf.strided_slice_41/ones_like/tensor",
            "op": "Const",
            "attr": {
                "dtype": {
                    "type": "DT_INT64"
                },
                "value": {
                    "tensor": {
                        "dtype": "DT_INT64",
                        "tensorShape": {
                            "dim": [{
                                "size": "4"
                            }]
                        }
                    }
                }
            }
        }, {
            "name": "model_59/tf.strided_slice_41/StridedSlice/end",
            "op": "Const",
            "attr": {
                "value": {
                    "tensor": {
                        "dtype": "DT_INT64",
                        "tensorShape": {
                            "dim": [{
                                "size": "4"
                            }]
                        }
                    }
                },
                "dtype": {
                    "type": "DT_INT64"
                }
            }
        }, {
            "name": "model_59/tf.strided_slice_41/ones_like",
            "op": "Const",
            "attr": {
                "value": {
                    "tensor": {
                        "dtype": "DT_INT64",
                        "tensorShape": {
                            "dim": [{
                                "size": "4"
                            }]
                        }
                    }
                },
                "dtype": {
                    "type": "DT_INT64"
                }
            }
        }, {
            "name": "model_59/tf.nn.convolution_139/convolution/filter",
            "op": "Const",
            "attr": {
                "value": {
                    "tensor": {
                        "dtype": "DT_FLOAT",
                        "tensorShape": {
                            "dim": [{
                                "size": "3"
                            }, {
                                "size": "3"
                            }, {
                                "size": "16"
                            }, {
                                "size": "16"
                            }]
                        }
                    }
                },
                "dtype": {
                    "type": "DT_FLOAT"
                }
            }
        }, {
            "name": "model_59/tf.math.add_165/Add/y",
            "op": "Const",
            "attr": {
                "dtype": {
                    "type": "DT_FLOAT"
                },
                "value": {
                    "tensor": {
                        "dtype": "DT_FLOAT",
                        "tensorShape": {
                            "dim": [{
                                "size": "16"
                            }]
                        }
                    }
                }
            }
        }, {
            "name": "model_59/tf.nn.convolution_140/convolution/filter",
            "op": "Const",
            "attr": {
                "dtype": {
                    "type": "DT_FLOAT"
                },
                "value": {
                    "tensor": {
                        "dtype": "DT_FLOAT",
                        "tensorShape": {
                            "dim": [{
                                "size": "3"
                            }, {
                                "size": "3"
                            }, {
                                "size": "16"
                            }, {
                                "size": "16"
                            }]
                        }
                    }
                }
            }
        }, {
            "name": "model_59/tf.math.add_166/Add/y",
            "op": "Const",
            "attr": {
                "dtype": {
                    "type": "DT_FLOAT"
                },
                "value": {
                    "tensor": {
                        "dtype": "DT_FLOAT",
                        "tensorShape": {
                            "dim": [{
                                "size": "16"
                            }]
                        }
                    }
                }
            }
        }, {
            "name": "model_59/tf.concat_40/concat/axis",
            "op": "Const",
            "attr": {
                "value": {
                    "tensor": {
                        "dtype": "DT_INT32",
                        "tensorShape": {}
                    }
                },
                "dtype": {
                    "type": "DT_INT32"
                }
            }
        }, {
            "name": "model_59/tf.nn.convolution_141/convolution/filter",
            "op": "Const",
            "attr": {
                "value": {
                    "tensor": {
                        "dtype": "DT_FLOAT",
                        "tensorShape": {
                            "dim": [{
                                "size": "1"
                            }, {
                                "size": "1"
                            }, {
                                "size": "48"
                            }, {
                                "size": "32"
                            }]
                        }
                    }
                },
                "dtype": {
                    "type": "DT_FLOAT"
                }
            }
        }, {
            "name": "model_59/tf.math.add_169/Add/y",
            "op": "Const",
            "attr": {
                "value": {
                    "tensor": {
                        "dtype": "DT_FLOAT",
                        "tensorShape": {
                            "dim": [{
                                "size": "32"
                            }]
                        }
                    }
                },
                "dtype": {
                    "type": "DT_FLOAT"
                }
            }
        }, {
            "name": "model_59/tf.compat.v1.pad_16/Pad/paddings",
            "op": "Const",
            "attr": {
                "value": {
                    "tensor": {
                        "dtype": "DT_INT32",
                        "tensorShape": {
                            "dim": [{
                                "size": "4"
                            }, {
                                "size": "2"
                            }]
                        }
                    }
                },
                "dtype": {
                    "type": "DT_INT32"
                }
            }
        }, {
            "name": "model_59/tf.nn.convolution_142/convolution/filter",
            "op": "Const",
            "attr": {
                "value": {
                    "tensor": {
                        "dtype": "DT_FLOAT",
                        "tensorShape": {
                            "dim": [{
                                "size": "3"
                            }, {
                                "size": "3"
                            }, {
                                "size": "32"
                            }, {
                                "size": "64"
                            }]
                        }
                    }
                },
                "dtype": {
                    "type": "DT_FLOAT"
                }
            }
        }, {
            "name": "model_59/tf.math.add_170/Add/y",
            "op": "Const",
            "attr": {
                "dtype": {
                    "type": "DT_FLOAT"
                },
                "value": {
                    "tensor": {
                        "dtype": "DT_FLOAT",
                        "tensorShape": {
                            "dim": [{
                                "size": "64"
                            }]
                        }
                    }
                }
            }
        }, {
            "name": "model_59/tf.nn.convolution_143/convolution/filter",
            "op": "Const",
            "attr": {
                "value": {
                    "tensor": {
                        "dtype": "DT_FLOAT",
                        "tensorShape": {
                            "dim": [{
                                "size": "1"
                            }, {
                                "size": "1"
                            }, {
                                "size": "64"
                            }, {
                                "size": "64"
                            }]
                        }
                    }
                },
                "dtype": {
                    "type": "DT_FLOAT"
                }
            }
        }, {
            "name": "model_59/tf.math.add_171/Add/y",
            "op": "Const",
            "attr": {
                "value": {
                    "tensor": {
                        "dtype": "DT_FLOAT",
                        "tensorShape": {
                            "dim": [{
                                "size": "64"
                            }]
                        }
                    }
                },
                "dtype": {
                    "type": "DT_FLOAT"
                }
            }
        }, {
            "name": "model_59/tf.strided_slice_43/ones_like/tensor",
            "op": "Const",
            "attr": {
                "value": {
                    "tensor": {
                        "dtype": "DT_INT64",
                        "tensorShape": {
                            "dim": [{
                                "size": "4"
                            }]
                        }
                    }
                },
                "dtype": {
                    "type": "DT_INT64"
                }
            }
        }, {
            "name": "model_59/tf.strided_slice_43/StridedSlice/end",
            "op": "Const",
            "attr": {
                "value": {
                    "tensor": {
                        "dtype": "DT_INT64",
                        "tensorShape": {
                            "dim": [{
                                "size": "4"
                            }]
                        }
                    }
                },
                "dtype": {
                    "type": "DT_INT64"
                }
            }
        }, {
            "name": "model_59/tf.strided_slice_43/ones_like",
            "op": "Const",
            "attr": {
                "dtype": {
                    "type": "DT_INT64"
                },
                "value": {
                    "tensor": {
                        "dtype": "DT_INT64",
                        "tensorShape": {
                            "dim": [{
                                "size": "4"
                            }]
                        }
                    }
                }
            }
        }, {
            "name": "model_59/tf.nn.convolution_144/convolution/filter",
            "op": "Const",
            "attr": {
                "value": {
                    "tensor": {
                        "dtype": "DT_FLOAT",
                        "tensorShape": {
                            "dim": [{
                                "size": "3"
                            }, {
                                "size": "3"
                            }, {
                                "size": "32"
                            }, {
                                "size": "32"
                            }]
                        }
                    }
                },
                "dtype": {
                    "type": "DT_FLOAT"
                }
            }
        }, {
            "name": "model_59/tf.math.add_172/Add/y",
            "op": "Const",
            "attr": {
                "value": {
                    "tensor": {
                        "dtype": "DT_FLOAT",
                        "tensorShape": {
                            "dim": [{
                                "size": "32"
                            }]
                        }
                    }
                },
                "dtype": {
                    "type": "DT_FLOAT"
                }
            }
        }, {
            "name": "model_59/tf.nn.convolution_145/convolution/filter",
            "op": "Const",
            "attr": {
                "value": {
                    "tensor": {
                        "dtype": "DT_FLOAT",
                        "tensorShape": {
                            "dim": [{
                                "size": "3"
                            }, {
                                "size": "3"
                            }, {
                                "size": "32"
                            }, {
                                "size": "32"
                            }]
                        }
                    }
                },
                "dtype": {
                    "type": "DT_FLOAT"
                }
            }
        }, {
            "name": "model_59/tf.math.add_173/Add/y",
            "op": "Const",
            "attr": {
                "dtype": {
                    "type": "DT_FLOAT"
                },
                "value": {
                    "tensor": {
                        "dtype": "DT_FLOAT",
                        "tensorShape": {
                            "dim": [{
                                "size": "32"
                            }]
                        }
                    }
                }
            }
        }, {
            "name": "model_59/tf.nn.convolution_146/convolution/filter",
            "op": "Const",
            "attr": {
                "dtype": {
                    "type": "DT_FLOAT"
                },
                "value": {
                    "tensor": {
                        "dtype": "DT_FLOAT",
                        "tensorShape": {
                            "dim": [{
                                "size": "3"
                            }, {
                                "size": "3"
                            }, {
                                "size": "32"
                            }, {
                                "size": "32"
                            }]
                        }
                    }
                }
            }
        }, {
            "name": "model_59/tf.math.add_176/Add/y",
            "op": "Const",
            "attr": {
                "dtype": {
                    "type": "DT_FLOAT"
                },
                "value": {
                    "tensor": {
                        "dtype": "DT_FLOAT",
                        "tensorShape": {
                            "dim": [{
                                "size": "32"
                            }]
                        }
                    }
                }
            }
        }, {
            "name": "model_59/tf.nn.convolution_147/convolution/filter",
            "op": "Const",
            "attr": {
                "value": {
                    "tensor": {
                        "dtype": "DT_FLOAT",
                        "tensorShape": {
                            "dim": [{
                                "size": "3"
                            }, {
                                "size": "3"
                            }, {
                                "size": "32"
                            }, {
                                "size": "32"
                            }]
                        }
                    }
                },
                "dtype": {
                    "type": "DT_FLOAT"
                }
            }
        }, {
            "name": "model_59/tf.math.add_177/Add/y",
            "op": "Const",
            "attr": {
                "value": {
                    "tensor": {
                        "dtype": "DT_FLOAT",
                        "tensorShape": {
                            "dim": [{
                                "size": "32"
                            }]
                        }
                    }
                },
                "dtype": {
                    "type": "DT_FLOAT"
                }
            }
        }, {
            "name": "model_59/tf.concat_41/concat/axis",
            "op": "Const",
            "attr": {
                "dtype": {
                    "type": "DT_INT32"
                },
                "value": {
                    "tensor": {
                        "dtype": "DT_INT32",
                        "tensorShape": {}
                    }
                }
            }
        }, {
            "name": "model_59/tf.nn.convolution_148/convolution/filter",
            "op": "Const",
            "attr": {
                "value": {
                    "tensor": {
                        "dtype": "DT_FLOAT",
                        "tensorShape": {
                            "dim": [{
                                "size": "1"
                            }, {
                                "size": "1"
                            }, {
                                "size": "128"
                            }, {
                                "size": "64"
                            }]
                        }
                    }
                },
                "dtype": {
                    "type": "DT_FLOAT"
                }
            }
        }, {
            "name": "model_59/tf.math.add_180/Add/y",
            "op": "Const",
            "attr": {
                "value": {
                    "tensor": {
                        "dtype": "DT_FLOAT",
                        "tensorShape": {
                            "dim": [{
                                "size": "64"
                            }]
                        }
                    }
                },
                "dtype": {
                    "type": "DT_FLOAT"
                }
            }
        }, {
            "name": "model_59/tf.compat.v1.pad_17/Pad/paddings",
            "op": "Const",
            "attr": {
                "dtype": {
                    "type": "DT_INT32"
                },
                "value": {
                    "tensor": {
                        "dtype": "DT_INT32",
                        "tensorShape": {
                            "dim": [{
                                "size": "4"
                            }, {
                                "size": "2"
                            }]
                        }
                    }
                }
            }
        }, {
            "name": "model_59/tf.nn.convolution_149/convolution/filter",
            "op": "Const",
            "attr": {
                "value": {
                    "tensor": {
                        "dtype": "DT_FLOAT",
                        "tensorShape": {
                            "dim": [{
                                "size": "3"
                            }, {
                                "size": "3"
                            }, {
                                "size": "64"
                            }, {
                                "size": "128"
                            }]
                        }
                    }
                },
                "dtype": {
                    "type": "DT_FLOAT"
                }
            }
        }, {
            "name": "model_59/tf.math.add_181/Add/y",
            "op": "Const",
            "attr": {
                "value": {
                    "tensor": {
                        "dtype": "DT_FLOAT",
                        "tensorShape": {
                            "dim": [{
                                "size": "128"
                            }]
                        }
                    }
                },
                "dtype": {
                    "type": "DT_FLOAT"
                }
            }
        }, {
            "name": "model_59/tf.nn.convolution_150/convolution/filter",
            "op": "Const",
            "attr": {
                "dtype": {
                    "type": "DT_FLOAT"
                },
                "value": {
                    "tensor": {
                        "dtype": "DT_FLOAT",
                        "tensorShape": {
                            "dim": [{
                                "size": "1"
                            }, {
                                "size": "1"
                            }, {
                                "size": "128"
                            }, {
                                "size": "128"
                            }]
                        }
                    }
                }
            }
        }, {
            "name": "model_59/tf.math.add_182/Add/y",
            "op": "Const",
            "attr": {
                "dtype": {
                    "type": "DT_FLOAT"
                },
                "value": {
                    "tensor": {
                        "dtype": "DT_FLOAT",
                        "tensorShape": {
                            "dim": [{
                                "size": "128"
                            }]
                        }
                    }
                }
            }
        }, {
            "name": "model_59/tf.strided_slice_45/ones_like/tensor",
            "op": "Const",
            "attr": {
                "dtype": {
                    "type": "DT_INT64"
                },
                "value": {
                    "tensor": {
                        "dtype": "DT_INT64",
                        "tensorShape": {
                            "dim": [{
                                "size": "4"
                            }]
                        }
                    }
                }
            }
        }, {
            "name": "model_59/tf.strided_slice_45/StridedSlice/end",
            "op": "Const",
            "attr": {
                "dtype": {
                    "type": "DT_INT64"
                },
                "value": {
                    "tensor": {
                        "dtype": "DT_INT64",
                        "tensorShape": {
                            "dim": [{
                                "size": "4"
                            }]
                        }
                    }
                }
            }
        }, {
            "name": "model_59/tf.strided_slice_45/ones_like",
            "op": "Const",
            "attr": {
                "value": {
                    "tensor": {
                        "dtype": "DT_INT64",
                        "tensorShape": {
                            "dim": [{
                                "size": "4"
                            }]
                        }
                    }
                },
                "dtype": {
                    "type": "DT_INT64"
                }
            }
        }, {
            "name": "model_59/tf.nn.convolution_151/convolution/filter",
            "op": "Const",
            "attr": {
                "value": {
                    "tensor": {
                        "dtype": "DT_FLOAT",
                        "tensorShape": {
                            "dim": [{
                                "size": "3"
                            }, {
                                "size": "3"
                            }, {
                                "size": "64"
                            }, {
                                "size": "64"
                            }]
                        }
                    }
                },
                "dtype": {
                    "type": "DT_FLOAT"
                }
            }
        }, {
            "name": "model_59/tf.math.add_183/Add/y",
            "op": "Const",
            "attr": {
                "dtype": {
                    "type": "DT_FLOAT"
                },
                "value": {
                    "tensor": {
                        "dtype": "DT_FLOAT",
                        "tensorShape": {
                            "dim": [{
                                "size": "64"
                            }]
                        }
                    }
                }
            }
        }, {
            "name": "model_59/tf.nn.convolution_152/convolution/filter",
            "op": "Const",
            "attr": {
                "value": {
                    "tensor": {
                        "dtype": "DT_FLOAT",
                        "tensorShape": {
                            "dim": [{
                                "size": "3"
                            }, {
                                "size": "3"
                            }, {
                                "size": "64"
                            }, {
                                "size": "64"
                            }]
                        }
                    }
                },
                "dtype": {
                    "type": "DT_FLOAT"
                }
            }
        }, {
            "name": "model_59/tf.math.add_184/Add/y",
            "op": "Const",
            "attr": {
                "dtype": {
                    "type": "DT_FLOAT"
                },
                "value": {
                    "tensor": {
                        "dtype": "DT_FLOAT",
                        "tensorShape": {
                            "dim": [{
                                "size": "64"
                            }]
                        }
                    }
                }
            }
        }, {
            "name": "model_59/tf.nn.convolution_153/convolution/filter",
            "op": "Const",
            "attr": {
                "value": {
                    "tensor": {
                        "dtype": "DT_FLOAT",
                        "tensorShape": {
                            "dim": [{
                                "size": "3"
                            }, {
                                "size": "3"
                            }, {
                                "size": "64"
                            }, {
                                "size": "64"
                            }]
                        }
                    }
                },
                "dtype": {
                    "type": "DT_FLOAT"
                }
            }
        }, {
            "name": "model_59/tf.math.add_187/Add/y",
            "op": "Const",
            "attr": {
                "dtype": {
                    "type": "DT_FLOAT"
                },
                "value": {
                    "tensor": {
                        "dtype": "DT_FLOAT",
                        "tensorShape": {
                            "dim": [{
                                "size": "64"
                            }]
                        }
                    }
                }
            }
        }, {
            "name": "model_59/tf.nn.convolution_154/convolution/filter",
            "op": "Const",
            "attr": {
                "dtype": {
                    "type": "DT_FLOAT"
                },
                "value": {
                    "tensor": {
                        "dtype": "DT_FLOAT",
                        "tensorShape": {
                            "dim": [{
                                "size": "3"
                            }, {
                                "size": "3"
                            }, {
                                "size": "64"
                            }, {
                                "size": "64"
                            }]
                        }
                    }
                }
            }
        }, {
            "name": "model_59/tf.math.add_188/Add/y",
            "op": "Const",
            "attr": {
                "dtype": {
                    "type": "DT_FLOAT"
                },
                "value": {
                    "tensor": {
                        "dtype": "DT_FLOAT",
                        "tensorShape": {
                            "dim": [{
                                "size": "64"
                            }]
                        }
                    }
                }
            }
        }, {
            "name": "model_59/tf.concat_42/concat/axis",
            "op": "Const",
            "attr": {
                "value": {
                    "tensor": {
                        "dtype": "DT_INT32",
                        "tensorShape": {}
                    }
                },
                "dtype": {
                    "type": "DT_INT32"
                }
            }
        }, {
            "name": "model_59/tf.nn.convolution_155/convolution/filter",
            "op": "Const",
            "attr": {
                "value": {
                    "tensor": {
                        "dtype": "DT_FLOAT",
                        "tensorShape": {
                            "dim": [{
                                "size": "1"
                            }, {
                                "size": "1"
                            }, {
                                "size": "256"
                            }, {
                                "size": "128"
                            }]
                        }
                    }
                },
                "dtype": {
                    "type": "DT_FLOAT"
                }
            }
        }, {
            "name": "model_59/tf.math.add_191/Add/y",
            "op": "Const",
            "attr": {
                "value": {
                    "tensor": {
                        "dtype": "DT_FLOAT",
                        "tensorShape": {
                            "dim": [{
                                "size": "128"
                            }]
                        }
                    }
                },
                "dtype": {
                    "type": "DT_FLOAT"
                }
            }
        }, {
            "name": "model_59/tf.compat.v1.pad_18/Pad/paddings",
            "op": "Const",
            "attr": {
                "dtype": {
                    "type": "DT_INT32"
                },
                "value": {
                    "tensor": {
                        "dtype": "DT_INT32",
                        "tensorShape": {
                            "dim": [{
                                "size": "4"
                            }, {
                                "size": "2"
                            }]
                        }
                    }
                }
            }
        }, {
            "name": "model_59/tf.nn.convolution_156/convolution/filter",
            "op": "Const",
            "attr": {
                "value": {
                    "tensor": {
                        "dtype": "DT_FLOAT",
                        "tensorShape": {
                            "dim": [{
                                "size": "3"
                            }, {
                                "size": "3"
                            }, {
                                "size": "128"
                            }, {
                                "size": "256"
                            }]
                        }
                    }
                },
                "dtype": {
                    "type": "DT_FLOAT"
                }
            }
        }, {
            "name": "model_59/tf.math.add_192/Add/y",
            "op": "Const",
            "attr": {
                "value": {
                    "tensor": {
                        "dtype": "DT_FLOAT",
                        "tensorShape": {
                            "dim": [{
                                "size": "256"
                            }]
                        }
                    }
                },
                "dtype": {
                    "type": "DT_FLOAT"
                }
            }
        }, {
            "name": "model_59/tf.nn.convolution_157/convolution/filter",
            "op": "Const",
            "attr": {
                "value": {
                    "tensor": {
                        "dtype": "DT_FLOAT",
                        "tensorShape": {
                            "dim": [{
                                "size": "1"
                            }, {
                                "size": "1"
                            }, {
                                "size": "256"
                            }, {
                                "size": "256"
                            }]
                        }
                    }
                },
                "dtype": {
                    "type": "DT_FLOAT"
                }
            }
        }, {
            "name": "model_59/tf.math.add_193/Add/y",
            "op": "Const",
            "attr": {
                "dtype": {
                    "type": "DT_FLOAT"
                },
                "value": {
                    "tensor": {
                        "dtype": "DT_FLOAT",
                        "tensorShape": {
                            "dim": [{
                                "size": "256"
                            }]
                        }
                    }
                }
            }
        }, {
            "name": "model_59/tf.strided_slice_47/ones_like/tensor",
            "op": "Const",
            "attr": {
                "value": {
                    "tensor": {
                        "dtype": "DT_INT64",
                        "tensorShape": {
                            "dim": [{
                                "size": "4"
                            }]
                        }
                    }
                },
                "dtype": {
                    "type": "DT_INT64"
                }
            }
        }, {
            "name": "model_59/tf.strided_slice_47/StridedSlice/end",
            "op": "Const",
            "attr": {
                "value": {
                    "tensor": {
                        "dtype": "DT_INT64",
                        "tensorShape": {
                            "dim": [{
                                "size": "4"
                            }]
                        }
                    }
                },
                "dtype": {
                    "type": "DT_INT64"
                }
            }
        }, {
            "name": "model_59/tf.strided_slice_47/ones_like",
            "op": "Const",
            "attr": {
                "value": {
                    "tensor": {
                        "dtype": "DT_INT64",
                        "tensorShape": {
                            "dim": [{
                                "size": "4"
                            }]
                        }
                    }
                },
                "dtype": {
                    "type": "DT_INT64"
                }
            }
        }, {
            "name": "model_59/tf.nn.convolution_158/convolution/filter",
            "op": "Const",
            "attr": {
                "dtype": {
                    "type": "DT_FLOAT"
                },
                "value": {
                    "tensor": {
                        "dtype": "DT_FLOAT",
                        "tensorShape": {
                            "dim": [{
                                "size": "3"
                            }, {
                                "size": "3"
                            }, {
                                "size": "128"
                            }, {
                                "size": "128"
                            }]
                        }
                    }
                }
            }
        }, {
            "name": "model_59/tf.math.add_194/Add/y",
            "op": "Const",
            "attr": {
                "value": {
                    "tensor": {
                        "dtype": "DT_FLOAT",
                        "tensorShape": {
                            "dim": [{
                                "size": "128"
                            }]
                        }
                    }
                },
                "dtype": {
                    "type": "DT_FLOAT"
                }
            }
        }, {
            "name": "model_59/tf.nn.convolution_159/convolution/filter",
            "op": "Const",
            "attr": {
                "value": {
                    "tensor": {
                        "dtype": "DT_FLOAT",
                        "tensorShape": {
                            "dim": [{
                                "size": "3"
                            }, {
                                "size": "3"
                            }, {
                                "size": "128"
                            }, {
                                "size": "128"
                            }]
                        }
                    }
                },
                "dtype": {
                    "type": "DT_FLOAT"
                }
            }
        }, {
            "name": "model_59/tf.math.add_195/Add/y",
            "op": "Const",
            "attr": {
                "dtype": {
                    "type": "DT_FLOAT"
                },
                "value": {
                    "tensor": {
                        "dtype": "DT_FLOAT",
                        "tensorShape": {
                            "dim": [{
                                "size": "128"
                            }]
                        }
                    }
                }
            }
        }, {
            "name": "model_59/tf.concat_43/concat/axis",
            "op": "Const",
            "attr": {
                "dtype": {
                    "type": "DT_INT32"
                },
                "value": {
                    "tensor": {
                        "dtype": "DT_INT32",
                        "tensorShape": {}
                    }
                }
            }
        }, {
            "name": "model_59/tf.nn.convolution_160/convolution/filter",
            "op": "Const",
            "attr": {
                "value": {
                    "tensor": {
                        "dtype": "DT_FLOAT",
                        "tensorShape": {
                            "dim": [{
                                "size": "1"
                            }, {
                                "size": "1"
                            }, {
                                "size": "384"
                            }, {
                                "size": "256"
                            }]
                        }
                    }
                },
                "dtype": {
                    "type": "DT_FLOAT"
                }
            }
        }, {
            "name": "model_59/tf.math.add_198/Add/y",
            "op": "Const",
            "attr": {
                "dtype": {
                    "type": "DT_FLOAT"
                },
                "value": {
                    "tensor": {
                        "dtype": "DT_FLOAT",
                        "tensorShape": {
                            "dim": [{
                                "size": "256"
                            }]
                        }
                    }
                }
            }
        }, {
            "name": "model_59/tf.nn.convolution_161/convolution/filter",
            "op": "Const",
            "attr": {
                "value": {
                    "tensor": {
                        "dtype": "DT_FLOAT",
                        "tensorShape": {
                            "dim": [{
                                "size": "1"
                            }, {
                                "size": "1"
                            }, {
                                "size": "256"
                            }, {
                                "size": "128"
                            }]
                        }
                    }
                },
                "dtype": {
                    "type": "DT_FLOAT"
                }
            }
        }, {
            "name": "model_59/tf.math.add_199/Add/y",
            "op": "Const",
            "attr": {
                "value": {
                    "tensor": {
                        "dtype": "DT_FLOAT",
                        "tensorShape": {
                            "dim": [{
                                "size": "128"
                            }]
                        }
                    }
                },
                "dtype": {
                    "type": "DT_FLOAT"
                }
            }
        }, {
            "name": "model_59/tf.concat_44/concat/axis",
            "op": "Const",
            "attr": {
                "value": {
                    "tensor": {
                        "dtype": "DT_INT32",
                        "tensorShape": {}
                    }
                },
                "dtype": {
                    "type": "DT_INT32"
                }
            }
        }, {
            "name": "model_59/tf.nn.convolution_162/convolution/filter",
            "op": "Const",
            "attr": {
                "dtype": {
                    "type": "DT_FLOAT"
                },
                "value": {
                    "tensor": {
                        "dtype": "DT_FLOAT",
                        "tensorShape": {
                            "dim": [{
                                "size": "1"
                            }, {
                                "size": "1"
                            }, {
                                "size": "512"
                            }, {
                                "size": "256"
                            }]
                        }
                    }
                }
            }
        }, {
            "name": "model_59/tf.math.add_200/Add/y",
            "op": "Const",
            "attr": {
                "dtype": {
                    "type": "DT_FLOAT"
                },
                "value": {
                    "tensor": {
                        "dtype": "DT_FLOAT",
                        "tensorShape": {
                            "dim": [{
                                "size": "256"
                            }]
                        }
                    }
                }
            }
        }, {
            "name": "model_59/tf.concat_54/concat/axis",
            "op": "Const",
            "attr": {
                "dtype": {
                    "type": "DT_INT32"
                },
                "value": {
                    "tensor": {
                        "dtype": "DT_INT32",
                        "tensorShape": {}
                    }
                }
            }
        }, {
            "name": "model_59/tf.nn.convolution_191/convolution/filter",
            "op": "Const",
            "attr": {
                "value": {
                    "tensor": {
                        "dtype": "DT_FLOAT",
                        "tensorShape": {
                            "dim": [{
                                "size": "1"
                            }, {
                                "size": "1"
                            }, {
                                "size": "384"
                            }, {
                                "size": "256"
                            }]
                        }
                    }
                },
                "dtype": {
                    "type": "DT_FLOAT"
                }
            }
        }, {
            "name": "model_59/tf.math.add_229/Add/y",
            "op": "Const",
            "attr": {
                "value": {
                    "tensor": {
                        "dtype": "DT_FLOAT",
                        "tensorShape": {
                            "dim": [{
                                "size": "256"
                            }]
                        }
                    }
                },
                "dtype": {
                    "type": "DT_FLOAT"
                }
            }
        }, {
            "name": "model_59/tf.strided_slice_55/ones_like/tensor",
            "op": "Const",
            "attr": {
                "dtype": {
                    "type": "DT_INT64"
                },
                "value": {
                    "tensor": {
                        "dtype": "DT_INT64",
                        "tensorShape": {
                            "dim": [{
                                "size": "4"
                            }]
                        }
                    }
                }
            }
        }, {
            "name": "model_59/tf.strided_slice_55/StridedSlice/end",
            "op": "Const",
            "attr": {
                "value": {
                    "tensor": {
                        "dtype": "DT_INT64",
                        "tensorShape": {
                            "dim": [{
                                "size": "4"
                            }]
                        }
                    }
                },
                "dtype": {
                    "type": "DT_INT64"
                }
            }
        }, {
            "name": "model_59/tf.strided_slice_55/ones_like",
            "op": "Const",
            "attr": {
                "value": {
                    "tensor": {
                        "dtype": "DT_INT64",
                        "tensorShape": {
                            "dim": [{
                                "size": "4"
                            }]
                        }
                    }
                },
                "dtype": {
                    "type": "DT_INT64"
                }
            }
        }, {
            "name": "model_59/tf.nn.convolution_194/convolution/filter",
            "op": "Const",
            "attr": {
                "dtype": {
                    "type": "DT_FLOAT"
                },
                "value": {
                    "tensor": {
                        "dtype": "DT_FLOAT",
                        "tensorShape": {
                            "dim": [{
                                "size": "3"
                            }, {
                                "size": "3"
                            }, {
                                "size": "128"
                            }, {
                                "size": "128"
                            }]
                        }
                    }
                }
            }
        }, {
            "name": "model_59/tf.math.add_232/Add/y",
            "op": "Const",
            "attr": {
                "dtype": {
                    "type": "DT_FLOAT"
                },
                "value": {
                    "tensor": {
                        "dtype": "DT_FLOAT",
                        "tensorShape": {
                            "dim": [{
                                "size": "128"
                            }]
                        }
                    }
                }
            }
        }, {
            "name": "model_59/tf.nn.convolution_195/convolution/filter",
            "op": "Const",
            "attr": {
                "value": {
                    "tensor": {
                        "dtype": "DT_FLOAT",
                        "tensorShape": {
                            "dim": [{
                                "size": "3"
                            }, {
                                "size": "3"
                            }, {
                                "size": "128"
                            }, {
                                "size": "128"
                            }]
                        }
                    }
                },
                "dtype": {
                    "type": "DT_FLOAT"
                }
            }
        }, {
            "name": "model_59/tf.math.add_233/Add/y",
            "op": "Const",
            "attr": {
                "value": {
                    "tensor": {
                        "dtype": "DT_FLOAT",
                        "tensorShape": {
                            "dim": [{
                                "size": "128"
                            }]
                        }
                    }
                },
                "dtype": {
                    "type": "DT_FLOAT"
                }
            }
        }, {
            "name": "model_59/tf.concat_56/concat/axis",
            "op": "Const",
            "attr": {
                "value": {
                    "tensor": {
                        "dtype": "DT_INT32",
                        "tensorShape": {}
                    }
                },
                "dtype": {
                    "type": "DT_INT32"
                }
            }
        }, {
            "name": "model_59/tf.nn.convolution_196/convolution/filter",
            "op": "Const",
            "attr": {
                "value": {
                    "tensor": {
                        "dtype": "DT_FLOAT",
                        "tensorShape": {
                            "dim": [{
                                "size": "1"
                            }, {
                                "size": "1"
                            }, {
                                "size": "384"
                            }, {
                                "size": "256"
                            }]
                        }
                    }
                },
                "dtype": {
                    "type": "DT_FLOAT"
                }
            }
        }, {
            "name": "model_59/tf.math.add_234/Add/y",
            "op": "Const",
            "attr": {
                "value": {
                    "tensor": {
                        "dtype": "DT_FLOAT",
                        "tensorShape": {
                            "dim": [{
                                "size": "256"
                            }]
                        }
                    }
                },
                "dtype": {
                    "type": "DT_FLOAT"
                }
            }
        }, {
            "name": "model_59/tf.nn.convolution_198/convolution/filter",
            "op": "Const",
            "attr": {
                "value": {
                    "tensor": {
                        "dtype": "DT_FLOAT",
                        "tensorShape": {
                            "dim": [{
                                "size": "3"
                            }, {
                                "size": "3"
                            }, {
                                "size": "256"
                            }, {
                                "size": "80"
                            }]
                        }
                    }
                },
                "dtype": {
                    "type": "DT_FLOAT"
                }
            }
        }, {
            "name": "model_59/tf.math.add_236/Add/y",
            "op": "Const",
            "attr": {
                "value": {
                    "tensor": {
                        "dtype": "DT_FLOAT",
                        "tensorShape": {
                            "dim": [{
                                "size": "80"
                            }]
                        }
                    }
                },
                "dtype": {
                    "type": "DT_FLOAT"
                }
            }
        }, {
            "name": "model_59/tf.nn.convolution_200/convolution/filter",
            "op": "Const",
            "attr": {
                "dtype": {
                    "type": "DT_FLOAT"
                },
                "value": {
                    "tensor": {
                        "dtype": "DT_FLOAT",
                        "tensorShape": {
                            "dim": [{
                                "size": "3"
                            }, {
                                "size": "3"
                            }, {
                                "size": "80"
                            }, {
                                "size": "80"
                            }]
                        }
                    }
                }
            }
        }, {
            "name": "model_59/tf.math.add_238/Add/y",
            "op": "Const",
            "attr": {
                "dtype": {
                    "type": "DT_FLOAT"
                },
                "value": {
                    "tensor": {
                        "dtype": "DT_FLOAT",
                        "tensorShape": {
                            "dim": [{
                                "size": "80"
                            }]
                        }
                    }
                }
            }
        }, {
            "name": "model_59/tf.nn.convolution_202/convolution/filter",
            "op": "Const",
            "attr": {
                "value": {
                    "tensor": {
                        "dtype": "DT_FLOAT",
                        "tensorShape": {
                            "dim": [{
                                "size": "1"
                            }, {
                                "size": "1"
                            }, {
                                "size": "80"
                            }, {
                                "size": "80"
                            }]
                        }
                    }
                },
                "dtype": {
                    "type": "DT_FLOAT"
                }
            }
        }, {
            "name": "model_59/tf.math.add_240/Add/y",
            "op": "Const",
            "attr": {
                "dtype": {
                    "type": "DT_FLOAT"
                },
                "value": {
                    "tensor": {
                        "dtype": "DT_FLOAT",
                        "tensorShape": {
                            "dim": [{
                                "size": "80"
                            }]
                        }
                    }
                }
            }
        }, {
            "name": "model_59/tf.concat_57/concat/axis",
            "op": "Const",
            "attr": {
                "dtype": {
                    "type": "DT_INT32"
                },
                "value": {
                    "tensor": {
                        "dtype": "DT_INT32",
                        "tensorShape": {}
                    }
                }
            }
        }, {
            "name": "model_59/tf.compat.v1.transpose_275/transpose/perm",
            "op": "Const",
            "attr": {
                "dtype": {
                    "type": "DT_INT32"
                },
                "value": {
                    "tensor": {
                        "dtype": "DT_INT32",
                        "tensorShape": {
                            "dim": [{
                                "size": "4"
                            }]
                        }
                    }
                }
            }
        }, {
            "name": "model_59/tf.reshape_38/Reshape/shape",
            "op": "Const",
            "attr": {
                "value": {
                    "tensor": {
                        "dtype": "DT_INT32",
                        "tensorShape": {
                            "dim": [{
                                "size": "3"
                            }]
                        }
                    }
                },
                "dtype": {
                    "type": "DT_INT32"
                }
            }
        }, {
            "name": "model_59/tf.concat_58/concat/axis",
            "op": "Const",
            "attr": {
                "dtype": {
                    "type": "DT_INT32"
                },
                "value": {
                    "tensor": {
                        "dtype": "DT_INT32",
                        "tensorShape": {}
                    }
                }
            }
        }, {
            "name": "model_59/tf.strided_slice_57/StridedSlice/begin",
            "op": "Const",
            "attr": {
                "value": {
                    "tensor": {
                        "dtype": "DT_INT64",
                        "tensorShape": {
                            "dim": [{
                                "size": "3"
                            }]
                        }
                    }
                },
                "dtype": {
                    "type": "DT_INT64"
                }
            }
        }, {
            "name": "model_59/tf.strided_slice_57/StridedSlice/end",
            "op": "Const",
            "attr": {
                "dtype": {
                    "type": "DT_INT64"
                },
                "value": {
                    "tensor": {
                        "dtype": "DT_INT64",
                        "tensorShape": {
                            "dim": [{
                                "size": "3"
                            }]
                        }
                    }
                }
            }
        }, {
            "name": "model_59/tf.strided_slice_57/StridedSlice/strides",
            "op": "Const",
            "attr": {
                "value": {
                    "tensor": {
                        "dtype": "DT_INT64",
                        "tensorShape": {
                            "dim": [{
                                "size": "3"
                            }]
                        }
                    }
                },
                "dtype": {
                    "type": "DT_INT64"
                }
            }
        }, {
            "name": "model_59/output0/concat/axis",
            "op": "Const",
            "attr": {
                "value": {
                    "tensor": {
                        "dtype": "DT_INT32",
                        "tensorShape": {}
                    }
                },
                "dtype": {
                    "type": "DT_INT32"
                }
            }
        }, {
            "name": "x",
            "op": "Placeholder",
            "attr": {
                "shape": {
                    "shape": {
                        "dim": [{
                            "size": "1"
                        }, {
                            "size": "640"
                        }, {
                            "size": "640"
                        }, {
                            "size": "3"
                        }]
                    }
                },
                "dtype": {
                    "type": "DT_FLOAT"
                }
            }
        }, {
            "name": "model_59/tf.compat.v1.pad_14/Pad",
            "op": "Pad",
            "input": ["x", "model_59/tf.compat.v1.pad_14/Pad/paddings"],
            "attr": {
                "T": {
                    "type": "DT_FLOAT"
                },
                "Tpaddings": {
                    "type": "DT_INT32"
                }
            }
        }, {
            "name": "model_59/tf.math.add_162/Add",
            "op": "_FusedConv2D",
            "input": ["model_59/tf.compat.v1.pad_14/Pad", "model_59/tf.nn.convolution_136/convolution/filter", "model_59/tf.math.add_162/Add/y"],
            "device": "/device:CPU:0",
            "attr": {
                "leakyrelu_alpha": {
                    "f": 0.2
                },
                "dilations": {
                    "list": {
                        "i": ["1", "1", "1", "1"]
                    }
                },
                "filter_format": {
                    "s": "SFdJTw=="
                },
                "TArgs": {
                    "list": {
                        "type": ["DT_FLOAT"]
                    }
                },
                "num_host_args": {
                    "i": "0"
                },
                "padding": {
                    "s": "VkFMSUQ="
                },
                "use_cudnn_on_gpu": {
                    "b": true
                },
                "fused_ops": {
                    "list": {
                        "s": ["Qmlhc0FkZA=="]
                    }
                },
                "T": {
                    "type": "DT_FLOAT"
                },
                "data_format": {
                    "s": "TkhXQw=="
                },
                "explicit_paddings": {
                    "list": {}
                },
                "epsilon": {
                    "f": 0.0
                },
                "num_args": {
                    "i": "1"
                },
                "strides": {
                    "list": {
                        "i": ["1", "2", "2", "1"]
                    }
                }
            }
        }, {
            "name": "model_59/tf.math.sigmoid_116/Sigmoid",
            "op": "Sigmoid",
            "input": ["model_59/tf.math.add_162/Add"],
            "attr": {
                "T": {
                    "type": "DT_FLOAT"
                }
            }
        }, {
            "name": "model_59/tf.math.multiply_511/Mul",
            "op": "Mul",
            "input": ["model_59/tf.math.add_162/Add", "model_59/tf.math.sigmoid_116/Sigmoid"],
            "attr": {
                "T": {
                    "type": "DT_FLOAT"
                }
            }
        }, {
            "name": "model_59/tf.compat.v1.pad_15/Pad",
            "op": "Pad",
            "input": ["model_59/tf.math.multiply_511/Mul", "model_59/tf.compat.v1.pad_15/Pad/paddings"],
            "attr": {
                "T": {
                    "type": "DT_FLOAT"
                },
                "Tpaddings": {
                    "type": "DT_INT32"
                }
            }
        }, {
            "name": "model_59/tf.math.add_163/Add",
            "op": "_FusedConv2D",
            "input": ["model_59/tf.compat.v1.pad_15/Pad", "model_59/tf.nn.convolution_137/convolution/filter", "model_59/tf.math.add_163/Add/y"],
            "device": "/device:CPU:0",
            "attr": {
                "TArgs": {
                    "list": {
                        "type": ["DT_FLOAT"]
                    }
                },
                "padding": {
                    "s": "VkFMSUQ="
                },
                "T": {
                    "type": "DT_FLOAT"
                },
                "num_host_args": {
                    "i": "0"
                },
                "data_format": {
                    "s": "TkhXQw=="
                },
                "use_cudnn_on_gpu": {
                    "b": true
                },
                "epsilon": {
                    "f": 0.0
                },
                "num_args": {
                    "i": "1"
                },
                "fused_ops": {
                    "list": {
                        "s": ["Qmlhc0FkZA=="]
                    }
                },
                "explicit_paddings": {
                    "list": {}
                },
                "dilations": {
                    "list": {
                        "i": ["1", "1", "1", "1"]
                    }
                },
                "strides": {
                    "list": {
                        "i": ["1", "2", "2", "1"]
                    }
                },
                "filter_format": {
                    "s": "SFdJTw=="
                },
                "leakyrelu_alpha": {
                    "f": 0.2
                }
            }
        }, {
            "name": "model_59/tf.math.sigmoid_117/Sigmoid",
            "op": "Sigmoid",
            "input": ["model_59/tf.math.add_163/Add"],
            "attr": {
                "T": {
                    "type": "DT_FLOAT"
                }
            }
        }, {
            "name": "model_59/tf.math.multiply_515/Mul",
            "op": "Mul",
            "input": ["model_59/tf.math.add_163/Add", "model_59/tf.math.sigmoid_117/Sigmoid"],
            "attr": {
                "T": {
                    "type": "DT_FLOAT"
                }
            }
        }, {
            "name": "model_59/tf.math.add_164/Add",
            "op": "_FusedConv2D",
            "input": ["model_59/tf.math.multiply_515/Mul", "model_59/tf.nn.convolution_138/convolution/filter", "model_59/tf.math.add_164/Add/y"],
            "device": "/device:CPU:0",
            "attr": {
                "strides": {
                    "list": {
                        "i": ["1", "1", "1", "1"]
                    }
                },
                "data_format": {
                    "s": "TkhXQw=="
                },
                "padding": {
                    "s": "U0FNRQ=="
                },
                "TArgs": {
                    "list": {
                        "type": ["DT_FLOAT"]
                    }
                },
                "T": {
                    "type": "DT_FLOAT"
                },
                "leakyrelu_alpha": {
                    "f": 0.2
                },
                "filter_format": {
                    "s": "SFdJTw=="
                },
                "use_cudnn_on_gpu": {
                    "b": true
                },
                "epsilon": {
                    "f": 0.0
                },
                "num_host_args": {
                    "i": "0"
                },
                "num_args": {
                    "i": "1"
                },
                "fused_ops": {
                    "list": {
                        "s": ["Qmlhc0FkZA=="]
                    }
                },
                "explicit_paddings": {
                    "list": {}
                },
                "dilations": {
                    "list": {
                        "i": ["1", "1", "1", "1"]
                    }
                }
            }
        }, {
            "name": "model_59/tf.math.sigmoid_118/Sigmoid",
            "op": "Sigmoid",
            "input": ["model_59/tf.math.add_164/Add"],
            "attr": {
                "T": {
                    "type": "DT_FLOAT"
                }
            }
        }, {
            "name": "model_59/tf.math.multiply_519/Mul",
            "op": "Mul",
            "input": ["model_59/tf.math.add_164/Add", "model_59/tf.math.sigmoid_118/Sigmoid"],
            "attr": {
                "T": {
                    "type": "DT_FLOAT"
                }
            }
        }, {
            "name": "model_59/tf.strided_slice_40/StridedSlice",
            "op": "StridedSlice",
            "input": ["model_59/tf.math.multiply_519/Mul", "model_59/tf.strided_slice_40/ones_like/tensor", "model_59/tf.strided_slice_40/StridedSlice/end", "model_59/tf.strided_slice_40/ones_like"],
            "attr": {
                "end_mask": {
                    "i": "7"
                },
                "begin_mask": {
                    "i": "15"
                },
                "ellipsis_mask": {
                    "i": "0"
                },
                "shrink_axis_mask": {
                    "i": "0"
                },
                "T": {
                    "type": "DT_FLOAT"
                },
                "new_axis_mask": {
                    "i": "0"
                },
                "Index": {
                    "type": "DT_INT64"
                }
            }
        }, {
            "name": "model_59/tf.strided_slice_41/StridedSlice",
            "op": "StridedSlice",
            "input": ["model_59/tf.math.multiply_519/Mul", "model_59/tf.strided_slice_41/ones_like/tensor", "model_59/tf.strided_slice_41/StridedSlice/end", "model_59/tf.strided_slice_41/ones_like"],
            "attr": {
                "ellipsis_mask": {
                    "i": "0"
                },
                "shrink_axis_mask": {
                    "i": "0"
                },
                "end_mask": {
                    "i": "7"
                },
                "begin_mask": {
                    "i": "7"
                },
                "Index": {
                    "type": "DT_INT64"
                },
                "T": {
                    "type": "DT_FLOAT"
                },
…
                    "s": "TkhXQw=="
                },
                "filter_format": {
                    "s": "SFdJTw=="
                },
                "fused_ops": {
                    "list": {
                        "s": ["Qmlhc0FkZA=="]
                    }
                },
                "use_cudnn_on_gpu": {
                    "b": true
                },
                "TArgs": {
                    "list": {
                        "type": ["DT_FLOAT"]
                    }
                },
                "epsilon": {
                    "f": 0.0
                },
                "dilations": {
                    "list": {
                        "i": ["1", "1", "1", "1"]
                    }
                },
                "strides": {
                    "list": {
                        "i": ["1", "1", "1", "1"]
                    }
                },
                "leakyrelu_alpha": {
                    "f": 0.2
                },
                "T": {
                    "type": "DT_FLOAT"
                },
                "num_args": {
                    "i": "1"
                },
                "explicit_paddings": {
                    "list": {}
                }
            }
        }, {
            "name": "model_59/tf.math.sigmoid_171/Sigmoid",
            "op": "Sigmoid",
            "input": ["model_59/tf.math.add_237/Add"],
            "attr": {
                "T": {
                    "type": "DT_FLOAT"
                }
            }
        }, {
            "name": "model_59/tf.math.sigmoid_172/Sigmoid",
            "op": "Sigmoid",
            "input": ["model_59/tf.math.add_238/Add"],
            "attr": {
                "T": {
                    "type": "DT_FLOAT"
                }
            }
        }, {
            "name": "model_59/tf.math.multiply_743/Mul",
            "op": "Mul",
            "input": ["model_59/tf.math.add_237/Add", "model_59/tf.math.sigmoid_171/Sigmoid"],
            "attr": {
                "T": {
                    "type": "DT_FLOAT"
                }
            }
        }, {
            "name": "model_59/tf.math.multiply_747/Mul",
            "op": "Mul",
            "input": ["model_59/tf.math.add_238/Add", "model_59/tf.math.sigmoid_172/Sigmoid"],
            "attr": {
                "T": {
                    "type": "DT_FLOAT"
                }
            }
        }, {
            "name": "model_59/tf.math.add_239/Add",
            "op": "_FusedConv2D",
            "input": ["model_59/tf.math.multiply_743/Mul", "model_59/tf.nn.convolution_201/convolution/filter", "model_59/tf.math.add_239/Add/y"],
            "device": "/device:CPU:0",
            "attr": {
                "data_format": {
                    "s": "TkhXQw=="
                },
                "TArgs": {
                    "list": {
                        "type": ["DT_FLOAT"]
                    }
                },
                "filter_format": {
                    "s": "SFdJTw=="
                },
                "epsilon": {
                    "f": 0.0
                },
                "num_args": {
                    "i": "1"
                },
                "leakyrelu_alpha": {
                    "f": 0.2
                },
                "fused_ops": {
                    "list": {
                        "s": ["Qmlhc0FkZA=="]
                    }
                },
                "num_host_args": {
                    "i": "0"
                },
                "T": {
                    "type": "DT_FLOAT"
                },
                "explicit_paddings": {
                    "list": {}
                },
                "dilations": {
                    "list": {
                        "i": ["1", "1", "1", "1"]
                    }
                },
                "padding": {
                    "s": "U0FNRQ=="
                },
                "use_cudnn_on_gpu": {
                    "b": true
                },
                "strides": {
                    "list": {
                        "i": ["1", "1", "1", "1"]
                    }
                }
            }
        }, {
            "name": "model_59/tf.math.add_240/Add",
            "op": "_FusedConv2D",
            "input": ["model_59/tf.math.multiply_747/Mul", "model_59/tf.nn.convolution_202/convolution/filter", "model_59/tf.math.add_240/Add/y"],
            "device": "/device:CPU:0",
            "attr": {
                "use_cudnn_on_gpu": {
                    "b": true
                },
                "fused_ops": {
                    "list": {
                        "s": ["Qmlhc0FkZA=="]
                    }
                },
                "TArgs": {
                    "list": {
                        "type": ["DT_FLOAT"]
                    }
                },
                "data_format": {
                    "s": "TkhXQw=="
                },
                "leakyrelu_alpha": {
                    "f": 0.2
                },
                "num_host_args": {
                    "i": "0"
                },
                "T": {
                    "type": "DT_FLOAT"
                },
                "strides": {
                    "list": {
                        "i": ["1", "1", "1", "1"]
                    }
                },
                "explicit_paddings": {
                    "list": {}
                },
                "num_args": {
                    "i": "1"
                },
                "epsilon": {
                    "f": 0.0
                },
                "filter_format": {
                    "s": "SFdJTw=="
                },
                "padding": {
                    "s": "U0FNRQ=="
                },
                "dilations": {
                    "list": {
                        "i": ["1", "1", "1", "1"]
                    }
                }
            }
        }, {
            "name": "model_59/tf.concat_57/concat",
            "op": "ConcatV2",
            "input": ["model_59/tf.math.add_239/Add", "model_59/tf.math.add_240/Add", "model_59/tf.concat_57/concat/axis"],
            "attr": {
                "T": {
                    "type": "DT_FLOAT"
                },
                "Tidx": {
                    "type": "DT_INT32"
                },
                "N": {
                    "i": "2"
                }
            }
        }, {
            "name": "model_59/tf.compat.v1.transpose_275/transpose",
            "op": "Transpose",
            "input": ["model_59/tf.concat_57/concat", "model_59/tf.compat.v1.transpose_275/transpose/perm"],
            "attr": {
                "Tperm": {
                    "type": "DT_INT32"
                },
                "T": {
                    "type": "DT_FLOAT"
                }
            }
        }, {
            "name": "model_59/tf.reshape_38/Reshape",
            "op": "Reshape",
            "input": ["model_59/tf.compat.v1.transpose_275/transpose", "model_59/tf.reshape_38/Reshape/shape"],
            "attr": {
                "T": {
                    "type": "DT_FLOAT"
                },
                "Tshape": {
                    "type": "DT_INT32"
                }
            }
        }, {
            "name": "model_59/tf.concat_58/concat",
            "op": "ConcatV2",
            "input": ["model_59/tf.reshape_32/Reshape", "model_59/tf.reshape_35/Reshape", "model_59/tf.reshape_38/Reshape", "model_59/tf.concat_58/concat/axis"],
            "attr": {
                "N": {
                    "i": "3"
                },
                "Tidx": {
                    "type": "DT_INT32"
                },
                "T": {
                    "type": "DT_FLOAT"
                }
            }
        }, {
            "name": "model_59/tf.strided_slice_57/StridedSlice",
            "op": "StridedSlice",
            "input": ["model_59/tf.concat_58/concat", "model_59/tf.strided_slice_57/StridedSlice/begin", "model_59/tf.strided_slice_57/StridedSlice/end", "model_59/tf.strided_slice_57/StridedSlice/strides"],
            "attr": {
                "T": {
                    "type": "DT_FLOAT"
                },
                "begin_mask": {
                    "i": "5"
                },
                "end_mask": {
                    "i": "5"
                },
                "Index": {
                    "type": "DT_INT64"
                },
                "new_axis_mask": {
                    "i": "0"
                },
                "shrink_axis_mask": {
                    "i": "0"
                },
                "ellipsis_mask": {
                    "i": "0"
                }
            }
        }, {
            "name": "model_59/tf.strided_slice_56/StridedSlice",
            "op": "StridedSlice",
            "input": ["model_59/tf.concat_58/concat", "model_59/tf.strided_slice_56/StridedSlice/begin", "model_59/tf.strided_slice_56/StridedSlice/end", "model_59/tf.strided_slice_56/StridedSlice/strides"],
            "attr": {
                "begin_mask": {
                    "i": "7"
                },
                "Index": {
                    "type": "DT_INT64"
                },
                "end_mask": {
                    "i": "5"
                },
                "T": {
                    "type": "DT_FLOAT"
                },
                "new_axis_mask": {
                    "i": "0"
                },
                "shrink_axis_mask": {
                    "i": "0"
                },
                "ellipsis_mask": {
                    "i": "0"
                }
            }
        }, {
            "name": "model_59/tf.math.sigmoid_173/Sigmoid",
            "op": "Sigmoid",
            "input": ["model_59/tf.strided_slice_57/StridedSlice"],
            "attr": {
                "T": {
                    "type": "DT_FLOAT"
                }
            }
        }, {
            "name": "model_59/tf.reshape_41/Reshape",
            "op": "Reshape",
            "input": ["model_59/tf.strided_slice_56/StridedSlice", "model_59/tf.reshape_41/Reshape/shape"],
            "attr": {
                "T": {
                    "type": "DT_FLOAT"
                },
                "Tshape": {
                    "type": "DT_INT32"
                }
            }
        }, {
            "name": "model_59/tf.compat.v1.transpose_282/transpose",
            "op": "Transpose",
            "input": ["model_59/tf.reshape_41/Reshape", "model_59/tf.compat.v1.transpose_282/transpose/perm"],
            "attr": {
                "Tperm": {
                    "type": "DT_INT32"
                },
                "T": {
                    "type": "DT_FLOAT"
                }
            }
        }, {
            "name": "model_59/tf.compat.v1.transpose_283/transpose",
            "op": "Transpose",
            "input": ["model_59/tf.compat.v1.transpose_282/transpose", "model_59/tf.compat.v1.transpose_283/transpose/perm"],
            "attr": {
                "T": {
                    "type": "DT_FLOAT"
                },
                "Tperm": {
                    "type": "DT_INT32"
                }
            }
        }, {
            "name": "model_59/tf.nn.softmax_2//model.22/dfl/Softmax",
            "op": "Softmax",
            "input": ["model_59/tf.compat.v1.transpose_283/transpose"],
            "attr": {
                "T": {
                    "type": "DT_FLOAT"
                }
            }
        }, {
            "name": "model_59/tf.nn.convolution_203/convolution",
            "op": "Conv2D",
            "input": ["model_59/tf.nn.softmax_2//model.22/dfl/Softmax", "model_59/tf.nn.convolution_203/convolution/filter"],
            "device": "/device:CPU:0",
            "attr": {
                "T": {
                    "type": "DT_FLOAT"
                },
                "explicit_paddings": {
                    "list": {}
                },
                "dilations": {
                    "list": {
                        "i": ["1", "1", "1", "1"]
                    }
                },
                "strides": {
                    "list": {
                        "i": ["1", "1", "1", "1"]
                    }
                },
                "padding": {
                    "s": "U0FNRQ=="
                },
                "data_format": {
                    "s": "TkhXQw=="
                },
                "use_cudnn_on_gpu": {
                    "b": true
                }
            }
        }, {
            "name": "model_59/tf.compat.v1.transpose_288/transpose",
            "op": "Transpose",
            "input": ["model_59/tf.nn.convolution_203/convolution", "model_59/tf.compat.v1.transpose_288/transpose/perm"],
            "attr": {
                "Tperm": {
                    "type": "DT_INT32"
                },
                "T": {
                    "type": "DT_FLOAT"
                }
            }
        }, {
            "name": "model_59/tf.reshape_44/Reshape",
            "op": "Reshape",
            "input": ["model_59/tf.compat.v1.transpose_288/transpose", "model_59/tf.reshape_44/Reshape/shape"],
            "attr": {
                "Tshape": {
                    "type": "DT_INT32"
                },
                "T": {
                    "type": "DT_FLOAT"
                }
            }
        }, {
            "name": "model_59/tf.strided_slice_59/StridedSlice",
            "op": "StridedSlice",
            "input": ["model_59/tf.reshape_44/Reshape", "model_59/tf.strided_slice_59/ones_like/tensor", "model_59/tf.strided_slice_59/StridedSlice/end", "model_59/tf.strided_slice_59/ones_like"],
            "attr": {
                "shrink_axis_mask": {
                    "i": "0"
                },
                "begin_mask": {
                    "i": "5"
                },
                "Index": {
                    "type": "DT_INT64"
                },
                "new_axis_mask": {
                    "i": "0"
                },
                "T": {
                    "type": "DT_FLOAT"
                },
                "end_mask": {
                    "i": "5"
                },
                "ellipsis_mask": {
                    "i": "0"
                }
            }
        }, {
            "name": "model_59/tf.strided_slice_58/StridedSlice",
            "op": "StridedSlice",
            "input": ["model_59/tf.reshape_44/Reshape", "model_59/tf.strided_slice_58/ones_like/tensor", "model_59/tf.strided_slice_58/StridedSlice/end", "model_59/tf.strided_slice_58/ones_like"],
            "attr": {
                "T": {
                    "type": "DT_FLOAT"
                },
                "new_axis_mask": {
                    "i": "0"
                },
                "begin_mask": {
                    "i": "7"
                },
                "end_mask": {
                    "i": "5"
                },
                "Index": {
                    "type": "DT_INT64"
                },
                "shrink_axis_mask": {
                    "i": "0"
                },
                "ellipsis_mask": {
                    "i": "0"
                }
            }
        }, {
            "name": "model_59/tf.math.add_241/Add",
            "op": "AddV2",
            "input": ["model_59/tf.strided_slice_59/StridedSlice", "model_59/tf.math.add_241/Add/y"],
            "attr": {
                "T": {
                    "type": "DT_FLOAT"
                }
            }
        }, {
            "name": "model_59/tf.math.subtract_4/Sub",
            "op": "Sub",
            "input": ["model_59/48956", "model_59/tf.strided_slice_58/StridedSlice"],
            "attr": {
                "T": {
                    "type": "DT_FLOAT"
                }
            }
        }, {
            "name": "model_59/tf.math.add_242/Add",
            "op": "AddV2",
            "input": ["model_59/tf.math.subtract_4/Sub", "model_59/tf.math.add_241/Add"],
            "attr": {
                "T": {
                    "type": "DT_FLOAT"
                }
            }
        }, {
            "name": "model_59/tf.math.subtract_5/Sub",
            "op": "Sub",
            "input": ["model_59/tf.math.add_241/Add", "model_59/tf.math.subtract_4/Sub"],
            "attr": {
                "T": {
                    "type": "DT_FLOAT"
                }
            }
        }, {
            "name": "model_59/tf.math.divide_2/truediv",
            "op": "Mul",
            "input": ["model_59/tf.math.add_242/Add", "ConstantFolding/model_59/tf.math.divide_2/truediv_recip"],
            "attr": {
                "T": {
                    "type": "DT_FLOAT"
                }
            }
        }, {
            "name": "model_59/tf.concat_62/concat",
            "op": "ConcatV2",
            "input": ["model_59/tf.math.divide_2/truediv", "model_59/tf.math.subtract_5/Sub", "model_59/tf.concat_62/concat/axis"],
            "attr": {
                "N": {
                    "i": "2"
                },
                "Tidx": {
                    "type": "DT_INT32"
                },
                "T": {
                    "type": "DT_FLOAT"
                }
            }
        }, {
            "name": "model_59/tf.math.multiply_760/Mul",
            "op": "Mul",
            "input": ["model_59/tf.concat_62/concat", "model_59/tf.math.multiply_760/Mul/y"],
            "attr": {
                "T": {
                    "type": "DT_FLOAT"
                }
            }
        }, {
            "name": "model_59/output0/concat",
            "op": "ConcatV2",
            "input": ["model_59/tf.math.multiply_760/Mul", "model_59/tf.math.sigmoid_173/Sigmoid", "model_59/output0/concat/axis"],
            "attr": {
                "N": {
                    "i": "2"
                },
                "Tidx": {
                    "type": "DT_INT32"
                },
                "T": {
                    "type": "DT_FLOAT"
                }
            }
        }, {
            "name": "Identity",
            "op": "Identity",
            "input": ["model_59/output0/concat"],
            "attr": {
                "T": {
                    "type": "DT_FLOAT"
                }
            }
        }],
        "library": {},
        "versions": {
            "producer": 1882
        }
    },
    "weightsManifest": [{
        "paths": ["group1-shard1of4.bin", "group1-shard2of4.bin", "group1-shard3of4.bin", "group1-shard4of4.bin"],
        "weights": [{
            "name": "ConstantFolding/model_59/tf.math.divide_2/truediv_recip",
            "shape": [],
            "dtype": "float32"
        }, {
            "name": "model_59/tf.strided_slice_59/ones_like/tensor",
            "shape": [3],
            "dtype": "int32"
        }, {
            "name": "model_59/tf.strided_slice_59/StridedSlice/end",
            "shape": [3],
            "dtype": "int32"
        }, {
            "name": "model_59/tf.strided_slice_59/ones_like",
            "shape": [3],
            "dtype": "int32"
        }, {
            "name": "model_59/tf.math.add_241/Add/y",
            "shape": [1, 2, 8400],
            "dtype": "float32"
        }, {
            "name": "model_59/48956",
            "shape": [1, 2, 8400],
            "dtype": "float32"
        }, {
            "name": "model_59/tf.strided_slice_56/StridedSlice/begin",
            "shape": [3],
            "dtype": "int32"
        }, {
            "name": "model_59/tf.strided_slice_56/StridedSlice/end",
            "shape": [3],
            "dtype": "int32"
        }, {
            "name": "model_59/tf.strided_slice_56/StridedSlice/strides",
            "shape": [3],
            "dtype": "int32"
        }, {
            "name": "model_59/tf.reshape_41/Reshape/shape",
            "shape": [4],
            "dtype": "int32"
        }, {
            "name": "model_59/tf.compat.v1.transpose_282/transpose/perm",
            "shape": [4],
            "dtype": "int32"
        }, {
            "name": "model_59/tf.compat.v1.transpose_283/transpose/perm",
            "shape": [4],
            "dtype": "int32"
        }, {
            "name": "model_59/tf.nn.convolution_203/convolution/filter",
            "shape": [1, 1, 16, 1],
            "dtype": "float32"
        }, {
            "name": "model_59/tf.compat.v1.transpose_288/transpose/perm",
            "shape": [4],
            "dtype": "int32"
        }, {
            "name": "model_59/tf.reshape_44/Reshape/shape",
            "shape": [3],
            "dtype": "int32"
        }, {
            "name": "model_59/tf.strided_slice_58/ones_like/tensor",
            "shape": [3],
            "dtype": "int32"
        }, {
            "name": "model_59/tf.strided_slice_58/StridedSlice/end",
            "shape": [3],
            "dtype": "int32"
        }, {
            "name": "model_59/tf.strided_slice_58/ones_like",
            "shape": [3],
            "dtype": "int32"
        }, {
            "name": "model_59/tf.concat_62/concat/axis",
            "shape": [],
            "dtype": "int32"
        }, {
            "name": "model_59/tf.math.multiply_760/Mul/y",
            "shape": [1, 1, 8400],
            "dtype": "float32"
        }, {
            "name": "model_59/tf.nn.convolution_172/convolution/filter",
            "shape": [3, 3, 64, 64],
            "dtype": "float32"
        }, {
            "name": "model_59/tf.math.add_210/Add/y",
            "shape": [64],
            "dtype": "float32"
        }, {
            "name": "model_59/tf.nn.convolution_174/convolution/filter",
            "shape": [3, 3, 64, 64],
            "dtype": "float32"
        }, {
            "name": "model_59/tf.math.add_212/Add/y",
            "shape": [64],
            "dtype": "float32"
        }, {
            "name": "model_59/tf.nn.convolution_179/convolution/filter",
            "shape": [1, 1, 64, 64],
            "dtype": "float32"
        }, {
            "name": "model_59/tf.math.add_217/Add/y",
            "shape": [64],
            "dtype": "float32"
        }, {
            "name": "model_59/tf.nn.convolution_173/convolution/filter",
            "shape": [3, 3, 64, 80],
            "dtype": "float32"
        }, {
            "name": "model_59/tf.math.add_211/Add/y",
            "shape": [80],
            "dtype": "float32"
        }, {
            "name": "model_59/tf.nn.convolution_177/convolution/filter",
            "shape": [3, 3, 80, 80],
            "dtype": "float32"
        }, {
            "name": "model_59/tf.math.add_215/Add/y",
            "shape": [80],
            "dtype": "float32"
        }, {
            "name": "model_59/tf.nn.convolution_182/convolution/filter",
            "shape": [1, 1, 80, 80],
            "dtype": "float32"
        }, {
            "name": "model_59/tf.math.add_220/Add/y",
            "shape": [80],
            "dtype": "float32"
        }, {
            "name": "model_59/tf.concat_52/concat/axis",
            "shape": [],
            "dtype": "int32"
        }, {
            "name": "model_59/tf.compat.v1.transpose_249/transpose/perm",
            "shape": [4],
            "dtype": "int32"
        }, {
            "name": "model_59/tf.reshape_32/Reshape/shape",
            "shape": [3],
            "dtype": "int32"
        }, {
            "name": "model_59/tf.nn.convolution_187/convolution/filter",
            "shape": [3, 3, 128, 64],
            "dtype": "float32"
        }, {
            "name": "model_59/tf.math.add_225/Add/y",
            "shape": [64],
            "dtype": "float32"
        }, {
            "name": "model_59/tf.nn.convolution_189/convolution/filter",
            "shape": [3, 3, 64, 64],
            "dtype": "float32"
        }, {
            "name": "model_59/tf.math.add_227/Add/y",
            "shape": [64],
            "dtype": "float32"
        }, {
            "name": "model_59/tf.nn.convolution_192/convolution/filter",
            "shape": [1, 1, 64, 64],
            "dtype": "float32"
        }, {
            "name": "model_59/tf.math.add_230/Add/y",
            "shape": [64],
            "dtype": "float32"
        }, {
            "name": "model_59/tf.nn.convolution_188/convolution/filter",
            "shape": [3, 3, 128, 80],
            "dtype": "float32"
        }, {
            "name": "model_59/tf.math.add_226/Add/y",
            "shape": [80],
            "dtype": "float32"
        }, {
            "name": "model_59/tf.nn.convolution_190/convolution/filter",
            "shape": [3, 3, 80, 80],
            "dtype": "float32"
        }, {
            "name": "model_59/tf.math.add_228/Add/y",
            "shape": [80],
            "dtype": "float32"
        }, {
            "name": "model_59/tf.nn.convolution_193/convolution/filter",
            "shape": [1, 1, 80, 80],
            "dtype": "float32"
        }, {
            "name": "model_59/tf.math.add_231/Add/y",
            "shape": [80],
            "dtype": "float32"
        }, {
            "name": "model_59/tf.concat_55/concat/axis",
            "shape": [],
            "dtype": "int32"
        }, {
            "name": "model_59/tf.compat.v1.transpose_263/transpose/perm",
            "shape": [4],
            "dtype": "int32"
        }, {
            "name": "model_59/tf.reshape_35/Reshape/shape",
            "shape": [3],
            "dtype": "int32"
        }, {
            "name": "model_59/tf.nn.convolution_197/convolution/filter",
            "shape": [3, 3, 256, 64],
            "dtype": "float32"
        }, {
            "name": "model_59/tf.math.add_235/Add/y",
            "shape": [64],
            "dtype": "float32"
        }, {
            "name": "model_59/tf.nn.convolution_199/convolution/filter",
            "shape": [3, 3, 64, 64],
            "dtype": "float32"
        }, {
            "name": "model_59/tf.math.add_237/Add/y",
            "shape": [64],
            "dtype": "float32"
        }, {
            "name": "model_59/tf.nn.convolution_201/convolution/filter",
            "shape": [1, 1, 64, 64],
            "dtype": "float32"
        }, {
            "name": "model_59/tf.math.add_239/Add/y",
            "shape": [64],
            "dtype": "float32"
        }, {
            "name": "model_59/tf.strided_slice_54/ones_like/tensor",
            "shape": [4],
            "dtype": "int32"
        }, {
            "name": "model_59/tf.strided_slice_54/StridedSlice/end",
            "shape": [4],
            "dtype": "int32"
        }, {
            "name": "model_59/tf.strided_slice_54/ones_like",
            "shape": [4],
            "dtype": "int32"
        }, {
            "name": "model_59/tf.strided_slice_52/ones_like/tensor",
            "shape": [4],
            "dtype": "int32"
        }, {
            "name": "model_59/tf.strided_slice_52/StridedSlice/end",
            "shape": [4],
            "dtype": "int32"
        }, {
            "name": "model_59/tf.strided_slice_52/ones_like",
            "shape": [4],
            "dtype": "int32"
        }, {
            "name": "model_59/tf.strided_slice_50/ones_like/tensor",
            "shape": [4],
            "dtype": "int32"
        }, {
            "name": "model_59/tf.strided_slice_50/StridedSlice/end",
            "shape": [4],
            "dtype": "int32"
        }, {
            "name": "model_59/tf.strided_slice_50/ones_like",
            "shape": [4],
            "dtype": "int32"
        }, {
            "name": "model_59/tf.image.resize_5/resize/size",
            "shape": [2],
            "dtype": "int32"
        }, {
            "name": "model_59/tf.concat_47/concat/axis",
            "shape": [],
            "dtype": "int32"
        }, {
            "name": "model_59/tf.nn.convolution_167/convolution/filter",
            "shape": [1, 1, 192, 64],
            "dtype": "float32"
        }, {
            "name": "model_59/tf.math.add_205/Add/y",
            "shape": [64],
            "dtype": "float32"
        }, {
            "name": "model_59/tf.strided_slice_51/ones_like/tensor",
            "shape": [4],
            "dtype": "int32"
        }, {
            "name": "model_59/tf.strided_slice_51/StridedSlice/end",
            "shape": [4],
            "dtype": "int32"
        }, {
            "name": "model_59/tf.strided_slice_51/ones_like",
            "shape": [4],
            "dtype": "int32"
        }, {
            "name": "model_59/tf.nn.convolution_168/convolution/filter",
            "shape": [3, 3, 32, 32],
            "dtype": "float32"
        }, {
            "name": "model_59/tf.math.add_206/Add/y",
            "shape": [32],
            "dtype": "float32"
        }, {
            "name": "model_59/tf.nn.convolution_169/convolution/filter",
            "shape": [3, 3, 32, 32],
            "dtype": "float32"
        }, {
            "name": "model_59/tf.math.add_207/Add/y",
            "shape": [32],
            "dtype": "float32"
        }, {
            "name": "model_59/tf.concat_48/concat/axis",
            "shape": [],
            "dtype": "int32"
        }, {
            "name": "model_59/tf.nn.convolution_170/convolution/filter",
            "shape": [1, 1, 96, 64],
            "dtype": "float32"
        }, {
            "name": "model_59/tf.math.add_208/Add/y",
            "shape": [64],
            "dtype": "float32"
        }, {
            "name": "model_59/tf.compat.v1.pad_19/Pad/paddings",
            "shape": [4, 2],
            "dtype": "int32"
        }, {
            "name": "model_59/tf.nn.convolution_171/convolution/filter",
            "shape": [3, 3, 64, 64],
            "dtype": "float32"
        }, {
            "name": "model_59/tf.math.add_209/Add/y",
            "shape": [64],
            "dtype": "float32"
        }, {
            "name": "model_59/tf.strided_slice_48/ones_like/tensor",
            "shape": [4],
            "dtype": "int32"
        }, {
            "name": "model_59/tf.strided_slice_48/StridedSlice/end",
            "shape": [4],
            "dtype": "int32"
        }, {
            "name": "model_59/tf.strided_slice_48/ones_like",
            "shape": [4],
            "dtype": "int32"
        }, {
            "name": "model_59/tf.image.resize_4/resize/size",
            "shape": [2],
            "dtype": "int32"
        }, {
            "name": "model_59/tf.concat_45/concat/axis",
            "shape": [],
            "dtype": "int32"
        }, {
            "name": "model_59/tf.nn.convolution_163/convolution/filter",
            "shape": [1, 1, 384, 128],
            "dtype": "float32"
        }, {
            "name": "model_59/tf.math.add_201/Add/y",
            "shape": [128],
            "dtype": "float32"
        }, {
            "name": "model_59/tf.strided_slice_49/ones_like/tensor",
            "shape": [4],
            "dtype": "int32"
        }, {
            "name": "model_59/tf.strided_slice_49/StridedSlice/end",
            "shape": [4],
            "dtype": "int32"
        }, {
            "name": "model_59/tf.strided_slice_49/ones_like",
            "shape": [4],
            "dtype": "int32"
        }, {
            "name": "model_59/tf.nn.convolution_164/convolution/filter",
            "shape": [3, 3, 64, 64],
            "dtype": "float32"
        }, {
            "name": "model_59/tf.math.add_202/Add/y",
            "shape": [64],
            "dtype": "float32"
        }, {
            "name": "model_59/tf.nn.convolution_165/convolution/filter",
            "shape": [3, 3, 64, 64],
            "dtype": "float32"
        }, {
            "name": "model_59/tf.math.add_203/Add/y",
            "shape": [64],
            "dtype": "float32"
        }, {
            "name": "model_59/tf.concat_46/concat/axis",
            "shape": [],
            "dtype": "int32"
        }, {
            "name": "model_59/tf.nn.convolution_166/convolution/filter",
            "shape": [1, 1, 192, 128],
            "dtype": "float32"
        }, {
            "name": "model_59/tf.math.add_204/Add/y",
            "shape": [128],
            "dtype": "float32"
        }, {
            "name": "model_59/tf.concat_49/concat/axis",
            "shape": [],
            "dtype": "int32"
        }, {
            "name": "model_59/tf.nn.convolution_178/convolution/filter",
            "shape": [1, 1, 192, 128],
            "dtype": "float32"
        }, {
            "name": "model_59/tf.math.add_216/Add/y",
            "shape": [128],
            "dtype": "float32"
        }, {
            "name": "model_59/tf.strided_slice_53/ones_like/tensor",
            "shape": [4],
            "dtype": "int32"
        }, {
            "name": "model_59/tf.strided_slice_53/StridedSlice/end",
            "shape": [4],
            "dtype": "int32"
        }, {
            "name": "model_59/tf.strided_slice_53/ones_like",
            "shape": [4],
            "dtype": "int32"
        }, {
            "name": "model_59/tf.nn.convolution_183/convolution/filter",
            "shape": [3, 3, 64, 64],
            "dtype": "float32"
        }, {
            "name": "model_59/tf.math.add_221/Add/y",
            "shape": [64],
            "dtype": "float32"
        }, {
            "name": "model_59/tf.nn.convolution_184/convolution/filter",
            "shape": [3, 3, 64, 64],
            "dtype": "float32"
        }, {
            "name": "model_59/tf.math.add_222/Add/y",
            "shape": [64],
            "dtype": "float32"
        }, {
            "name": "model_59/tf.concat_53/concat/axis",
            "shape": [],
            "dtype": "int32"
        }, {
            "name": "model_59/tf.nn.convolution_185/convolution/filter",
            "shape": [1, 1, 192, 128],
            "dtype": "float32"
        }, {
            "name": "model_59/tf.math.add_223/Add/y",
            "shape": [128],
            "dtype": "float32"
        }, {
            "name": "model_59/tf.compat.v1.pad_20/Pad/paddings",
            "shape": [4, 2],
            "dtype": "int32"
        }, {
            "name": "model_59/tf.nn.convolution_186/convolution/filter",
            "shape": [3, 3, 128, 128],
            "dtype": "float32"
        }, {
            "name": "model_59/tf.math.add_224/Add/y",
            "shape": [128],
            "dtype": "float32"
        }, {
            "name": "model_59/tf.strided_slice_46/ones_like/tensor",
            "shape": [4],
            "dtype": "int32"
        }, {
            "name": "model_59/tf.strided_slice_46/StridedSlice/end",
            "shape": [4],
            "dtype": "int32"
        }, {
            "name": "model_59/tf.strided_slice_46/ones_like",
            "shape": [4],
            "dtype": "int32"
        }, {
            "name": "model_59/tf.strided_slice_44/ones_like/tensor",
            "shape": [4],
            "dtype": "int32"
        }, {
            "name": "model_59/tf.strided_slice_44/StridedSlice/end",
            "shape": [4],
            "dtype": "int32"
        }, {
            "name": "model_59/tf.strided_slice_44/ones_like",
            "shape": [4],
            "dtype": "int32"
        }, {
            "name": "model_59/tf.strided_slice_42/ones_like/tensor",
            "shape": [4],
            "dtype": "int32"
        }, {
            "name": "model_59/tf.strided_slice_42/StridedSlice/end",
            "shape": [4],
            "dtype": "int32"
        }, {
            "name": "model_59/tf.strided_slice_42/ones_like",
            "shape": [4],
            "dtype": "int32"
        }, {
            "name": "model_59/tf.strided_slice_40/ones_like/tensor",
            "shape": [4],
            "dtype": "int32"
        }, {
            "name": "model_59/tf.strided_slice_40/StridedSlice/end",
            "shape": [4],
            "dtype": "int32"
        }, {
            "name": "model_59/tf.strided_slice_40/ones_like",
            "shape": [4],
            "dtype": "int32"
        }, {
            "name": "model_59/tf.compat.v1.pad_14/Pad/paddings",
            "shape": [4, 2],
            "dtype": "int32"
        }, {
            "name": "model_59/tf.nn.convolution_136/convolution/filter",
            "shape": [3, 3, 3, 16],
            "dtype": "float32"
        }, {
            "name": "model_59/tf.math.add_162/Add/y",
            "shape": [16],
            "dtype": "float32"
        }, {
            "name": "model_59/tf.compat.v1.pad_15/Pad/paddings",
            "shape": [4, 2],
            "dtype": "int32"
        }, {
            "name": "model_59/tf.nn.convolution_137/convolution/filter",
            "shape": [3, 3, 16, 32],
            "dtype": "float32"
        }, {
            "name": "model_59/tf.math.add_163/Add/y",
            "shape": [32],
            "dtype": "float32"
        }, {
            "name": "model_59/tf.nn.convolution_138/convolution/filter",
            "shape": [1, 1, 32, 32],
            "dtype": "float32"
        }, {
            "name": "model_59/tf.math.add_164/Add/y",
            "shape": [32],
            "dtype": "float32"
        }, {
            "name": "model_59/tf.strided_slice_41/ones_like/tensor",
            "shape": [4],
            "dtype": "int32"
        }, {
            "name": "model_59/tf.strided_slice_41/StridedSlice/end",
            "shape": [4],
            "dtype": "int32"
        }, {
            "name": "model_59/tf.strided_slice_41/ones_like",
            "shape": [4],
            "dtype": "int32"
        }, {
            "name": "model_59/tf.nn.convolution_139/convolution/filter",
            "shape": [3, 3, 16, 16],
            "dtype": "float32"
        }, {
            "name": "model_59/tf.math.add_165/Add/y",
            "shape": [16],
            "dtype": "float32"
        }, {
            "name": "model_59/tf.nn.convolution_140/convolution/filter",
            "shape": [3, 3, 16, 16],
            "dtype": "float32"
        }, {
            "name": "model_59/tf.math.add_166/Add/y",
            "shape": [16],
            "dtype": "float32"
        }, {
            "name": "model_59/tf.concat_40/concat/axis",
            "shape": [],
            "dtype": "int32"
        }, {
            "name": "model_59/tf.nn.convolution_141/convolution/filter",
            "shape": [1, 1, 48, 32],
            "dtype": "float32"
        }, {
            "name": "model_59/tf.math.add_169/Add/y",
            "shape": [32],
            "dtype": "float32"
        }, {
            "name": "model_59/tf.compat.v1.pad_16/Pad/paddings",
            "shape": [4, 2],
            "dtype": "int32"
        }, {
            "name": "model_59/tf.nn.convolution_142/convolution/filter",
            "shape": [3, 3, 32, 64],
            "dtype": "float32"
        }, {
            "name": "model_59/tf.math.add_170/Add/y",
            "shape": [64],
            "dtype": "float32"
        }, {
            "name": "model_59/tf.nn.convolution_143/convolution/filter",
            "shape": [1, 1, 64, 64],
            "dtype": "float32"
        }, {
            "name": "model_59/tf.math.add_171/Add/y",
            "shape": [64],
            "dtype": "float32"
        }, {
            "name": "model_59/tf.strided_slice_43/ones_like/tensor",
            "shape": [4],
            "dtype": "int32"
        }, {
            "name": "model_59/tf.strided_slice_43/StridedSlice/end",
            "shape": [4],
            "dtype": "int32"
        }, {
            "name": "model_59/tf.strided_slice_43/ones_like",
            "shape": [4],
            "dtype": "int32"
        }, {
            "name": "model_59/tf.nn.convolution_144/convolution/filter",
            "shape": [3, 3, 32, 32],
            "dtype": "float32"
        }, {
            "name": "model_59/tf.math.add_172/Add/y",
            "shape": [32],
            "dtype": "float32"
        }, {
            "name": "model_59/tf.nn.convolution_145/convolution/filter",
            "shape": [3, 3, 32, 32],
            "dtype": "float32"
        }, {
            "name": "model_59/tf.math.add_173/Add/y",
            "shape": [32],
            "dtype": "float32"
        }, {
            "name": "model_59/tf.nn.convolution_146/convolution/filter",
            "shape": [3, 3, 32, 32],
            "dtype": "float32"
        }, {
            "name": "model_59/tf.math.add_176/Add/y",
            "shape": [32],
            "dtype": "float32"
        }, {
            "name": "model_59/tf.nn.convolution_147/convolution/filter",
            "shape": [3, 3, 32, 32],
            "dtype": "float32"
        }, {
            "name": "model_59/tf.math.add_177/Add/y",
            "shape": [32],
            "dtype": "float32"
        }, {
            "name": "model_59/tf.concat_41/concat/axis",
            "shape": [],
            "dtype": "int32"
        }, {
            "name": "model_59/tf.nn.convolution_148/convolution/filter",
            "shape": [1, 1, 128, 64],
            "dtype": "float32"
        }, {
            "name": "model_59/tf.math.add_180/Add/y",
            "shape": [64],
            "dtype": "float32"
        }, {
            "name": "model_59/tf.compat.v1.pad_17/Pad/paddings",
            "shape": [4, 2],
            "dtype": "int32"
        }, {
            "name": "model_59/tf.nn.convolution_149/convolution/filter",
            "shape": [3, 3, 64, 128],
            "dtype": "float32"
        }, {
            "name": "model_59/tf.math.add_181/Add/y",
            "shape": [128],
            "dtype": "float32"
        }, {
            "name": "model_59/tf.nn.convolution_150/convolution/filter",
            "shape": [1, 1, 128, 128],
            "dtype": "float32"
        }, {
            "name": "model_59/tf.math.add_182/Add/y",
            "shape": [128],
            "dtype": "float32"
        }, {
            "name": "model_59/tf.strided_slice_45/ones_like/tensor",
            "shape": [4],
            "dtype": "int32"
        }, {
            "name": "model_59/tf.strided_slice_45/StridedSlice/end",
            "shape": [4],
            "dtype": "int32"
        }, {
            "name": "model_59/tf.strided_slice_45/ones_like",
            "shape": [4],
            "dtype": "int32"
        }, {
            "name": "model_59/tf.nn.convolution_151/convolution/filter",
            "shape": [3, 3, 64, 64],
            "dtype": "float32"
        }, {
            "name": "model_59/tf.math.add_183/Add/y",
            "shape": [64],
            "dtype": "float32"
        }, {
            "name": "model_59/tf.nn.convolution_152/convolution/filter",
            "shape": [3, 3, 64, 64],
            "dtype": "float32"
        }, {
            "name": "model_59/tf.math.add_184/Add/y",
            "shape": [64],
            "dtype": "float32"
        }, {
            "name": "model_59/tf.nn.convolution_153/convolution/filter",
            "shape": [3, 3, 64, 64],
            "dtype": "float32"
        }, {
            "name": "model_59/tf.math.add_187/Add/y",
            "shape": [64],
            "dtype": "float32"
        }, {
            "name": "model_59/tf.nn.convolution_154/convolution/filter",
            "shape": [3, 3, 64, 64],
            "dtype": "float32"
        }, {
            "name": "model_59/tf.math.add_188/Add/y",
            "shape": [64],
            "dtype": "float32"
        }, {
            "name": "model_59/tf.concat_42/concat/axis",
            "shape": [],
            "dtype": "int32"
        }, {
            "name": "model_59/tf.nn.convolution_155/convolution/filter",
            "shape": [1, 1, 256, 128],
            "dtype": "float32"
        }, {
            "name": "model_59/tf.math.add_191/Add/y",
            "shape": [128],
            "dtype": "float32"
        }, {
            "name": "model_59/tf.compat.v1.pad_18/Pad/paddings",
            "shape": [4, 2],
            "dtype": "int32"
        }, {
            "name": "model_59/tf.nn.convolution_156/convolution/filter",
            "shape": [3, 3, 128, 256],
            "dtype": "float32"
        }, {
            "name": "model_59/tf.math.add_192/Add/y",
            "shape": [256],
            "dtype": "float32"
        }, {
            "name": "model_59/tf.nn.convolution_157/convolution/filter",
            "shape": [1, 1, 256, 256],
            "dtype": "float32"
        }, {
            "name": "model_59/tf.math.add_193/Add/y",
            "shape": [256],
            "dtype": "float32"
        }, {
            "name": "model_59/tf.strided_slice_47/ones_like/tensor",
            "shape": [4],
            "dtype": "int32"
        }, {
            "name": "model_59/tf.strided_slice_47/StridedSlice/end",
            "shape": [4],
            "dtype": "int32"
        }, {
            "name": "model_59/tf.strided_slice_47/ones_like",
            "shape": [4],
            "dtype": "int32"
        }, {
            "name": "model_59/tf.nn.convolution_158/convolution/filter",
            "shape": [3, 3, 128, 128],
            "dtype": "float32"
        }, {
            "name": "model_59/tf.math.add_194/Add/y",
            "shape": [128],
            "dtype": "float32"
        }, {
            "name": "model_59/tf.nn.convolution_159/convolution/filter",
            "shape": [3, 3, 128, 128],
            "dtype": "float32"
        }, {
            "name": "model_59/tf.math.add_195/Add/y",
            "shape": [128],
            "dtype": "float32"
        }, {
            "name": "model_59/tf.concat_43/concat/axis",
            "shape": [],
            "dtype": "int32"
        }, {
            "name": "model_59/tf.nn.convolution_160/convolution/filter",
            "shape": [1, 1, 384, 256],
            "dtype": "float32"
        }, {
            "name": "model_59/tf.math.add_198/Add/y",
            "shape": [256],
            "dtype": "float32"
        }, {
            "name": "model_59/tf.nn.convolution_161/convolution/filter",
            "shape": [1, 1, 256, 128],
            "dtype": "float32"
        }, {
            "name": "model_59/tf.math.add_199/Add/y",
            "shape": [128],
            "dtype": "float32"
        }, {
            "name": "model_59/tf.concat_44/concat/axis",
            "shape": [],
            "dtype": "int32"
        }, {
            "name": "model_59/tf.nn.convolution_162/convolution/filter",
            "shape": [1, 1, 512, 256],
            "dtype": "float32"
        }, {
            "name": "model_59/tf.math.add_200/Add/y",
            "shape": [256],
            "dtype": "float32"
        }, {
            "name": "model_59/tf.concat_54/concat/axis",
            "shape": [],
            "dtype": "int32"
        }, {
            "name": "model_59/tf.nn.convolution_191/convolution/filter",
            "shape": [1, 1, 384, 256],
            "dtype": "float32"
        }, {
            "name": "model_59/tf.math.add_229/Add/y",
            "shape": [256],
            "dtype": "float32"
        }, {
            "name": "model_59/tf.strided_slice_55/ones_like/tensor",
            "shape": [4],
            "dtype": "int32"
        }, {
            "name": "model_59/tf.strided_slice_55/StridedSlice/end",
            "shape": [4],
            "dtype": "int32"
        }, {
            "name": "model_59/tf.strided_slice_55/ones_like",
            "shape": [4],
            "dtype": "int32"
        }, {
            "name": "model_59/tf.nn.convolution_194/convolution/filter",
            "shape": [3, 3, 128, 128],
            "dtype": "float32"
        }, {
            "name": "model_59/tf.math.add_232/Add/y",
            "shape": [128],
            "dtype": "float32"
        }, {
            "name": "model_59/tf.nn.convolution_195/convolution/filter",
            "shape": [3, 3, 128, 128],
            "dtype": "float32"
        }, {
            "name": "model_59/tf.math.add_233/Add/y",
            "shape": [128],
            "dtype": "float32"
        }, {
            "name": "model_59/tf.concat_56/concat/axis",
            "shape": [],
            "dtype": "int32"
        }, {
            "name": "model_59/tf.nn.convolution_196/convolution/filter",
            "shape": [1, 1, 384, 256],
            "dtype": "float32"
        }, {
            "name": "model_59/tf.math.add_234/Add/y",
            "shape": [256],
            "dtype": "float32"
        }, {
            "name": "model_59/tf.nn.convolution_198/convolution/filter",
            "shape": [3, 3, 256, 80],
            "dtype": "float32"
        }, {
            "name": "model_59/tf.math.add_236/Add/y",
            "shape": [80],
            "dtype": "float32"
        }, {
            "name": "model_59/tf.nn.convolution_200/convolution/filter",
            "shape": [3, 3, 80, 80],
            "dtype": "float32"
        }, {
            "name": "model_59/tf.math.add_238/Add/y",
            "shape": [80],
            "dtype": "float32"
        }, {
            "name": "model_59/tf.nn.convolution_202/convolution/filter",
            "shape": [1, 1, 80, 80],
            "dtype": "float32"
        }, {
            "name": "model_59/tf.math.add_240/Add/y",
            "shape": [80],
            "dtype": "float32"
        }, {
            "name": "model_59/tf.concat_57/concat/axis",
            "shape": [],
            "dtype": "int32"
        }, {
            "name": "model_59/tf.compat.v1.transpose_275/transpose/perm",
            "shape": [4],
            "dtype": "int32"
        }, {
            "name": "model_59/tf.reshape_38/Reshape/shape",
            "shape": [3],
            "dtype": "int32"
        }, {
            "name": "model_59/tf.concat_58/concat/axis",
            "shape": [],
            "dtype": "int32"
        }, {
            "name": "model_59/tf.strided_slice_57/StridedSlice/begin",
            "shape": [3],
            "dtype": "int32"
        }, {
            "name": "model_59/tf.strided_slice_57/StridedSlice/end",
            "shape": [3],
            "dtype": "int32"
        }, {
            "name": "model_59/tf.strided_slice_57/StridedSlice/strides",
            "shape": [3],
            "dtype": "int32"
        }, {
            "name": "model_59/output0/concat/axis",
            "shape": [],
            "dtype": "int32"
        }]
    }]
}